ml-models/trained_models/campaign_forecaster.pth (torch, 854557 bytes, 12 tensors)

lstm.weight_ih_l0 f4 [512, 10]
00000000: f54b d9bd 77af 77bd a1ac 31bc 0c76 9d3d
00000010: 2d70 953d 3859 a53d dd2e fc3b 47e6 0f3d
00000020: b960 4fbc 09fd be3c b169 3bbc 3711 34bd
00000030: 8347 43bd 1f75 a73d 3c7e afbd c1cc c63c
00000040: 7788 9f3c f944 8d3d 1be5 12bc 11c8 65bd
00000050: 3a29 463d 6fd1 bebd 086e ec3d da95 aa3d
00000060: ed1d 343d 3b5c 37bd 58a9 d53c e4f5 c5bb
00000070: c35e 51bd 9496 4d3d 1251 17be 57d4 0bbe
00000080: b9eb 313d 39c8 0f3c e010 2d3d cda4 783d
00000090: 8bd7 17bd 9790 cb3d 7119 1a3e c998 113d
000000a0: 31a5 8b3d 3f17 47bd 8449 3f3e 9c00 953d
000000b0: df43 a7bd b526 29bd b770 ef3c 5fd9 c3bd
000000c0: dc8c 4a3b 942d ad3c bd8e 4e3c 1071 3dbe
000000d0: 18c7 2c3d b495 8c3b a870 10bd 6da5 b9bd
000000e0: c02c 72bc 3c65 4cbe 341e d8bc e0ed acbd
000000f0: 06ae eb3d 3678 873d e905 19be 7621 3c3d
00000100: 3b1c a6bb 53f6 0abb 420e 25bd ae1c 6b3c
00000110: e844 8e3d 9d23 013e 6097 0a3c 3bf6 063c
00000120: 5a52 e8bd 828f 18bd 7714 84bd 843e 183b
00000130: 3f23 84bb 703e 90bd 0d2e 2fbd 55c8 dabc
00000140: eb54 54be 95bb 24be 0e46 8ebd 48bc 0abd
00000150: c305 07bd cb75 8c3d 8693 bc3b aaca 8bbd
00000160: 86d6 23bc d103 da3d d12e ffbd c1ac 723c
00000170: 7d58 82be a2b0 b3bd 666b 85bd 6d5f 71bd
00000180: 045e d43d 0efb 383e 5954 1ebe d4c2 4abb
00000190: da7d 9d3e be53 843d f121 5e3e 43b9 b0bd
000001a0: 222a 58bd 8bed 7fba 70e3 3abd aaae 6ebd
000001b0: 815b 053d 6c2c 063e bacc ba3b 9ca6 eabc
000001c0: 8afb 973d baff b0bd b9ab ab3d ff4c 873d
000001d0: 1a58 093d 9e6e 73bd 894f 27bb 99e0 9d3c
000001e0: 61fb 8abd 12b6 293e d1dc 4bbe ae17 3dbd
000001f0: c73e b33d 467a 9bbd 8a65 a9bc 7152 f33d
00000200: 94bd 433e 714c 9cbd 5b47 a93e b282 953d
00000210: 29f7 633e 7768 a63d 815e 093c 5ca6 5cbe
00000220: a219 1ebe 5a18 0ebe 09d7 fcbc 14e6 25bd
00000230: 1fe0 f0bc df7f 413d b034 093d 5a08 a13d
00000240: 2190 3e3d 969f e03a 3063 fe3c 0a06 f9bd
00000250: 569d fe3c 980b 473d 5ed5 56bd c0c6 bbbd
00000260: 121d 323e 83e2 253d 32b0 e0bc febe 173e
00000270: 57fa 073e 1a9a d3bd d0d0 f1bc 2d4e d43d
00000280: 79ff 963d 490d 34bb c6cb 153d c317 85bb
00000290: 4e2c 743c 65e9 b23c f56e 55bc 41f1 21bd
000002a0: 5a47 423e a376 39bd 475a c2bd 2f7c 4cbe
000002b0: 9629 163e 6b22 e9bc 384d 31bc 7961 d13d
000002c0: bdc0 f83d a2a0 1c3d 0453 b13d c1e6 2e3e
000002d0: 3f46 00be c172 b0bd 3e16 823d 3adb b5bc
000002e0: eb6c 553c 4285 b1bd fa64 cd3c b121 b6bd
000002f0: c0cb f53c 5251 0c3e 1a63 883d 841d b63d
00000300: c7a5 e0bd 871d 623c dbac abbd 7a2b 0f3e
00000310: 7ee4 df3d bc43 8cbc 2d91 8bbd d86c 95bd
00000320: e35d 1dbd 9576 83be ecd3 f5bb f766 473c
00000330: 28bb b03d f1d3 c13d 8956 163e fcba 8cbd
00000340: 01e6 f33d b655 e53d c080 253d 0591 c5bd
00000350: fc14 133e db0a 733c 08b6 903c 07a6 4f3d
00000360: eaef 9bbd f9b1 12bd e8df e2bc e614 7dbd
00000370: 4a26 56bd 10ac 60bd 6f38 7d3d 02b1 333c
00000380: 4b92 9f3d 6d48 ebbc f7e7 4e3d a4e0 9e3d
00000390: 3e74 0a3e 9981 10bd 320d 97bb f10f 12be
000003a0: 6adb 193e 50b3 d3bb 8d50 913d c208 2e3d
000003b0: 02d9 813d 8465 8fbd 1228 edbd ebe0 0b3e
000003c0: 7841 c43e 2c06 0e3e 6f34 723c f366 7d3c
000003d0: 1382 ffbb 8e4f 94be 528e 95be c065 0b3d
000003e0: 8e40 c33c 154a dabd dd8c e8bc 7ca9 74bd
000003f0: d28b 0a3b 1ccb 5ebd 5dbb 573b 9091 5e3d
-0.10610191 -0.06047007 -0.010844381 0.07688531 0.072967865 0.08073658 0.007696016 0.03513172
-0.012657338 0.023314016 -0.011438773 -0.04396173 -0.04767562 0.08176636 -0.08568999 0.024267556
0.019474251 0.06897921 -0.008965756 -0.056099 0.04837916 -0.0931729 0.11544424 0.08329363
0.043973852 -0.044765692 0.026081726 -0.0060412753 -0.051115762 0.05019243 -0.1477702 -0.1365522
0.043437693 0.008775764 0.04225242 0.06070404 -0.037070792 0.09939688 0.15048768 0.035546098
0.06818617 -0.048606154 0.18680388 0.07275507 -0.08167242 -0.04129668 0.029228551 -0.095629446
0.0030906713 0.021139897 0.012607274 -0.18500161 0.042182058 0.004290307 -0.035263687 -0.090647556
-0.014781177 -0.19960493 -0.02638159 -0.084438086 0.11507802 0.06614725 -0.14943661 0.04593035
-0.0050692833 -0.002120395 -0.0402968 0.0143500995 0.069467366 0.12611242 0.008458942 0.008237417
-0.11343832 -0.037246235 -0.06449216 0.0023230622 -0.004032522 -0.07043159 -0.042768527 -0.026706854
-0.20735519 -0.16087182 -0.069469556 -0.033870965 -0.03296448 0.06858405 0.005754891 -0.068257645
-0.009999877 0.10645259 -0.124601014 0.014811696 -0.25458136 -0.087739244 -0.06514625 -0.058928896
0.103694946 0.1806452 -0.15461864 -0.003093888 0.3076008 0.06461285 0.21692635 -0.08629086
-0.052774556 -0.00097628747 -0.045627058 -0.05827204 0.032557968 0.13102883 0.005700675 -0.028643899
0.07421024 -0.08642526 0.08382363 0.06606483 0.033531286 -0.059431665 -0.0025529584 0.019272136
-0.06786228 0.1657336 -0.19908454 -0.04616516 0.08752208 -0.07591681 -0.0206783 0.11880959
0.19115287 -0.076317675 0.33062252 0.07300319 0.22262253 0.08125394 0.008384348 -0.21547836
-0.15439466 -0.13876477 -0.030864256 -0.040502623 -0.029403744 0.047241088 0.033497512 0.07862921
0.04652417 0.0017137404 0.031053156 -0.12159355 0.031080883 0.04859504 -0.052449577 -0.09168768
0.17393902 0.04049922 -0.027427766 0.14818951 0.13279091 -0.10332127 -0.029518515 0.10366473
0.07372946 -0.002747374 0.036571287 -0.0040616705 0.014903141 0.021839807 -0.0130269425 -0.03953672
0.18972531 -0.045279156 -0.09489875 -0.19969247 0.14664301 -0.028458795 -0.010821633 0.102236696
0.12146137 0.03823913 0.08658412 0.17080213 -0.12526797 -0.086156376 0.063518986 -0.022199262
0.013026456 -0.08667995 0.025072563 -0.08893145 0.030004382 0.13702896 0.06659527 0.088923484
-0.109691195 0.013800985 -0.08382579 0.13981429 0.10932253 -0.017122142 -0.068147995 -0.07296151
-0.038419615 -0.25676408 -0.0075020697 0.012170545 0.08629447 0.09464253 0.14681448 -0.06871602
0.11909104 0.11197989 0.04040599 -0.09646801 0.14363474 0.014834131 0.017664924 0.050695445
-0.07614119 -0.03581426 -0.027694657 -0.06178751 -0.05228261 -0.05485159 0.061821397 0.010967495
0.07791575 -0.028721059 0.050514188 0.077576905 0.13520905 -0.035279844 -0.0046097273 -0.14263894
0.15025106 -0.0064605847 0.07095442 0.04248882 0.06340219 -0.070017844 -0.115799084 0.13660018
0.383312 0.13869542 0.014783009 0.01546644 -0.0077974885 -0.28966945 -0.29210144 0.034032583
0.023834493 -0.10658661 -0.028387481 -0.059731945 0.0021140468 -0.05439292 0.0032918074 0.054338038

lstm.weight_hh_l0 f4 [512, 128]
00000000: 8112 dfbb 83d1 f1bc 3e0d dc3b b5fc 70bd
00000010: b434 bdbd 13e0 d23d 0a49 5ebd f19f 2c3d
00000020: 3586 b13d 33fc a0bb 0b4b edbc 731f b03c
00000030: b644 c3bd 9154 aabc 957f 763d 76b7 403d
00000040: bfa7 a13c 7925 d93d d9de 883c dbee 223d
00000050: 8057 943c f589 3f3c 3671 873d 9374 8f3d
00000060: 2fc2 eebd d218 903d 7cea 123e 2b7e 39bc
00000070: 4d56 8fbd 4880 e23d 0530 8dbd 4882 1f3c
00000080: eb34 0cbd 0c4f 2ebd 9be3 c1bd d649 5dbd
00000090: 8233 093d 602c 523d 7b67 833d e9be 963b
000000a0: 4db7 2fbd 1e52 77bd 8ae6 5f3d a0d8 f7bb
000000b0: 2bab 76bb b586 303c 4714 80bc 7e7f 07bd
000000c0: a51b 63bc e704 d13d 1412 fc3c f958 9a3d
000000d0: abc5 273d f5b5 263d 0411 383c 8f5f 1abd
000000e0: 7ae7 96bc a582 fdb9 1df0 3e3d 4f65 013c
000000f0: 3970 db3b b85d db3c acc4 84bd a320 9a3c
00000100: acd5 21bd 6922 54bc a709 20bd 0463 ce3b
00000110: 80b2 e4bc fc87 263d d388 043d ef66 b4bc
00000120: 71ff bebd 9e03 eb3d f67f 2aba d697 e93d
00000130: 72bd d2bd 07ae a0bc ad7a bcbc 9fb1 b93d
00000140: ccc1 393d 3045 c7bd 0ec9 3a3c 4de1 cabd
00000150: 2b4f 3e3d 9491 d2bd afff 753d b089 0339
00000160: 0699 fe3b 3413 b4bd d294 673b d971 bd3d
00000170: 4c90 03bd 0487 9bbc 08b8 02bd fb9e 29bd
00000180: 08f3 793d 9668 0dbd d2a4 dd3c 281d 30bb
00000190: 357e cabd fe0d adbd b81d 823d 213a 9fbd
000001a0: e213 793d 7a4f cc3d 9a6f 0fbd d6d7 2dbd
000001b0: 0996 d93d d226 a7bd 77e5 cd3d 2ab5 a7bc
000001c0: 68e3 ab39 89a7 cebd b834 d13c 0b15 fdbd
000001d0: b444 113d 215f 65bd 9d35 733d af98 b93d
000001e0: e2cb 8f3d 231c 9dbb 16be af3d 6989 d23c
000001f0: a14c 56bd eef1 513d e452 763d 919a 9ebd
00000200: 369a b43b 6d75 583c 1144 9f3d 3251 f0bd
00000210: 294c 073d 90ee ae3d 45aa babd c21e b9bc
00000220: acfc be3c 7d34 98bd 141f 67bd 45c8 af3c
00000230: 6f00 34be 977d 8cbc 5532 fbba d806 223d
00000240: c88f a8bd 4b8c 51bc 8d7c b7bd 5ece 303e
00000250: 329d d3bc ed2e 58bd cd4c 353d e996 203d
00000260: 212f 9ebc 7496 89bc 02c8 b93c 944c abbd
00000270: 058e 26bd f920 2a3d 03fc 24bd db4e c43d
00000280: b4bc 443c ef26 2f3d 9552 c63d fefe af3d
00000290: 8ae5 703d 98b1 99bc 5dd1 fd3c d14e b5bd
000002a0: e096 ebbb f2af 1abd d023 3c3e 95f4 793c
000002b0: c893 7ebd bb8b 22bc 4157 7bbd 8d53 913b
000002c0: ef36 1abc 2766 ac3c 72ef 40be 2067 42bd
000002d0: f8ea 44bb 455c 5fbd 2d43 afbc e4b6 53bd
000002e0: 17f9 e03c eec3 3a3d 2358 8ebd 47f6 d4bc
000002f0: 089e 453d 70c7 56bc e171 5c3d ae03 123d
00000300: 7b2d 87bc 0b47 7abd 5fc9 243d bdf3 1bbd
00000310: 84d3 1dbd cfae 5b3d d049 1ebd 0539 07be
00000320: d21c d43c 2070 9e3c a3f7 88bd 7c0d 573d
00000330: a540 893c dd2e 713d 4e55 99bd 6c99 8dbd
00000340: 9eb9 063e 3ccd 6bbd 3ada e7bc 6cce 42ba
00000350: 1abe d3bc edae 8c3d d91c 723d e416 56bd
00000360: fc9d ae3d 55a9 20bd 400e 813d 1fe0 2c3d
00000370: fec9 033d db36 383e 36eb 81bc d4da 233d
00000380: dca0 92bd bfc1 d2bd 0021 07bd 3447 5dbb
00000390: 0e88 87bc a64c 533d 2591 4f3d 8d92 50bd
000003a0: 9ce7 8bbc b37a 63bd 7d4c abbd 02bb 053d
000003b0: b3ee 363e 2dad 1b3d 5596 ccbd 19de 1abc
000003c0: e857 e1bb 88ba 96bc c3ed aaba 0158 96bd
000003d0: 53c9 fe3c a390 f63c af57 14be bb46 873b
000003e0: f926 3abb 1feb 9dbd ab89 ab3c 5506 8fbc
000003f0: 3593 7dbd bfbd b8bc a677 f93d be45 973d
-0.0068076258 -0.029518848 0.006715446 -0.05883475 -0.09238568 0.10296645 -0.054268874 0.04214472
0.08668176 -0.004912877 -0.028966447 0.021499371 -0.0953459 -0.020792278 0.060180265 0.047049962
0.019733308 0.106028505 0.016707825 0.03977857 0.01810813 0.011690606 0.0661339 0.07004657
-0.11658131 0.07035984 0.14347261 -0.011321585 -0.069988824 0.11059624 -0.068939246 0.009735651
-0.034230154 -0.042555854 -0.094672404 -0.054025494 0.033496387 0.05131185 0.06416222 0.004600395
-0.04289942 -0.060381047 0.05466322 -0.0075636655 -0.0037638645 0.010774304 -0.015634669 -0.03308057
-0.013861571 0.10206013 0.03077034 0.075365014 0.040959995 0.04070087 0.011234526 -0.037688788
-0.018420924 -0.00048353258 0.04661571 0.007897689 0.0066967276 0.026778087 -0.06482825 0.01881439
-0.039510414 -0.012947657 -0.039071705 0.0062984247 -0.027917147 0.04065703 0.03235705 -0.022021739
-0.09326065 0.11475299 -0.0006504053 0.114059135 -0.1029004 -0.019614233 -0.023007715 0.09067082
0.045350835 -0.09729993 0.011400474 -0.09906254 0.04646222 -0.10281673 0.060058292 0.00012544426
0.0077697067 -0.08792725 0.0035336507 0.0925023 -0.032120034 -0.018985279 -0.031913787 -0.04141138
0.06102279 -0.03452357 0.027056132 -0.0026872847 -0.09887353 -0.084499344 0.06353325 -0.07774759
0.060809977 0.099760965 -0.03501854 -0.042442165 0.1062432 -0.08161701 0.100535326 -0.020472128
0.00032785092 -0.100905485 0.025537834 -0.12357529 0.03546591 -0.055998925 0.0593773 0.09062325
0.070213094 -0.004794614 0.08581178 0.025700288 -0.052319173 0.051256113 0.060137644 -0.07744325
0.0055115474 0.01321159 0.077766545 -0.11734237 0.033031616 0.08541596 -0.091145076 -0.022597674
0.023313843 -0.07431886 -0.056426123 0.0214578 -0.1757829 -0.01714973 -0.001916478 0.039557308
-0.08230549 -0.012789796 -0.08959303 0.17266223 -0.025831793 -0.052779127 0.044262696 0.03920642
-0.019309582 -0.016795374 0.022678379 -0.083642155 -0.040662784 0.04153535 -0.0402794 0.09585353
0.012007881 0.04276174 0.0968372 0.08593558 0.058812656 -0.018761441 0.030983621 -0.08852924
-0.0071896166 -0.03776545 0.18373036 0.015256067 -0.062152654 -0.00992101 -0.06136251 0.004435009
-0.009412511 0.021044804 -0.18841341 -0.04746163 -0.003004728 -0.054531354 -0.021394337 -0.05168809
0.027462525 0.04559701 -0.069504045 -0.02599634 0.048246413 -0.013109073 0.05381954 0.03564804
-0.016501179 -0.061102908 0.040231105 -0.038074244 -0.038531795 0.053633507 -0.03864461 -0.13205345
0.025892649 0.019340575 -0.06687858 0.052503094 0.016754458 0.058882583 -0.07486974 -0.069140285
0.13156745 -0.057568774 -0.0283023 -0.0007431272 -0.025847483 0.06869302 0.059109543 -0.052267924
0.08526227 -0.039223988 0.06301546 0.042205926 0.032175057 0.17989676 -0.015859228 0.040003613
-0.07159588 -0.102908604 -0.032990456 -0.0033764364 -0.016544368 0.05158677 0.05067553 -0.05092101
-0.017078213 -0.055536937 -0.08364198 0.032649048 0.17864494 0.03800695 -0.09989611 -0.009452366
-0.0068769343 -0.018399492 -0.0013040829 -0.07341004 0.031101858 0.030098265 -0.14486574 0.004128305
-0.0028404577 -0.077108614 0.020939669 -0.017459074 -0.061907966 -0.022551415 0.12181024 0.07386349

lstm.bias_ih_l0 f4 [512]
00000000: cc5d 5f3c 26f6 503d 546a c0bc 8ff2 fdbc
00000010: 5d97 ddbd a345 aa3c bdd8 a1bd 05e1 d6bd
00000020: 8bde 91bd bbf1 413d 0f31 0a3c c83b 17bd
00000030: c3e0 4c3d 9b14 cdbd 8310 4dbc aa64 fdba
00000040: f0c0 b83b 5cc9 af3c 854e c83c 6e19 05bd
00000050: 8c29 e2bc 6d47 f5bd 799a 953d 7184 213d
00000060: 14c4 d73c a691 42be 5ea7 e1bc 1528 9e3c
00000070: e7c7 b53c 8172 173c b536 9cbd 303c c6bd
00000080: 1a03 abbd ce04 9fbd e117 40bd 1209 023d
00000090: 9678 b2bd 040e 4abe 6db2 9bbd 3eaa 61bd
000000a0: 18c7 8dbd 0989 8f3d a8c6 983c 7686 4ebd
000000b0: 2893 183d a739 1837 8d14 6ebd 3551 50bc
000000c0: 916f 1a3b 33df 62bb 974f cfbd 8a71 8bbc
000000d0: d673 82bd 3e02 7f3d a5c7 723d 5265 deba
000000e0: 4d41 e4bd c6c9 573b 15f7 513d f839 d9bd
000000f0: 4911 04bd bc57 f4bc 25e4 b8bd 399f c83c
00000100: 5657 7dbe e53e d43d 1ca8 b5bc 83d5 27bb
00000110: e9a7 903c cb1e 633d b47a 173d 9dde 3e3c
00000120: 1cdf b63c f90b a13d b08c 1dbe d5a7 7ebd
00000130: 0a2a 723d 8184 37bc 47a1 4d3d 0cfc 1abe
00000140: f5a8 c2bd 7700 ab3c 643b cebd 12de 3bbd
00000150: e9a4 0dbe 5b7f a83d ed45 abba b485 633c
00000160: 8af1 3b3d 58a6 07be b8a5 f0bc f197 3ebd
00000170: d5ec 86bd 7ae9 c5bd 0a02 4ebd 824e 283d
00000180: f410 debd 91bc a83c 47ec f63c 4080 7c3d
00000190: feb6 25bc ce16 ef3c 4c7c 013d da44 cdbd
000001a0: 8c3d f7bd e363 bebd 8607 303d 5a68 d5bc
000001b0: 1aaf 163e 6bcf fcbd 6b24 11bc 5749 2bbe
000001c0: 13c9 183d 120a 3dbc dda2 0cbe ef84 20bc
000001d0: 1f7a 9ebd 3607 93bd 9977 9bbd af67 e3bd
000001e0: 5f26 91bc 1bff 223e 4f2a fa3c d7a4 52bd
000001f0: 9c9b 17b9 1d2a 9cbc 263e 12bd b4df 16be
00000200: 176f 9c3c bb87 d23d 26df 63bd 9f6c 8abd
00000210: 07a6 9bbd 9f09 b1bb 8a63 2fbd a940 48bd
00000220: af99 d23c 4885 753d c038 9a3d 1f6a bfbb
00000230: 4959 893d 0684 efbd 992b acbd d76a 483c
00000240: e766 aabd fda9 373c 8d7a 3dbd 119c ad3d
00000250: 37d4 913d e75e 0dbe 7936 77bd 0f99 3f3d
00000260: 0086 323b d9ba e2bd 3207 2abd ca72 123d
00000270: 9727 953d acfe 233d 5d43 babd 96c8 9ebd
00000280: ea49 83bd 8f8c 993d 278b 3ebd cdd3 043e
00000290: b152 de3c 27fb 813b 38ad e63d 5310 823d
000002a0: c9c3 babd dd7a 3abb 5dca 033e 916e 1fbc
000002b0: e7c7 b03d a859 19bb 494f e5bc b1bf dd3d
000002c0: ab84 e43c 0d5e d53c faf3 5e3d 1552 0a3d
000002d0: f932 3ebd 6b2c af3d 9c2b 28bd 0f02 4abd
000002e0: 3f49 cdbd a0d3 95bd afe1 2f3e 250d 8abd
000002f0: f513 babb 72ee 4fbd 4dcd 0fbd cefb db3d
00000300: 56c3 1dbc cfff c13d a577 afbc 6401 d6bc
00000310: 312c ecbc 3965 67bd 4bd7 e13c f231 ef3d
00000320: bd76 c13d 897b 843d 1a73 1f3d c6cf 1abc
00000330: b60c d73d 2f34 97bc 95d2 df3d dd5d 2c3d
00000340: da3a 00bd 88bd e3bd 38cd cabc 4246 c1bd
00000350: 5e97 4abd 3009 0c3c 859d c03c cd8c 813d
00000360: 571d 07bd f04e b7bd fe62 163d 99f4 c7bd
00000370: 4326 7d3c fd2e f8bb 0ee3 013d 0e8a 2cbc
00000380: d0aa 943d 9781 d1bd 1069 bbbd aa6c 843d
00000390: d1c6 1f3d 8ced cf3c 5350 b8bd a091 9a3b
000003a0: 7545 cfbd a328 613d af4b 913d c30f 113c
000003b0: acb6 ce3d c01e a5bd 7e68 743d b082 0abd
000003c0: 027b 26bc ac8b 353c 6c09 8abc 9326 0dbe
000003d0: 3023 f0bd f67f bdbc 1a40 f1bc 5135 03be
000003e0: 34a6 d3bc 1188 f53d 1d05 0dbd a5b1 abbd
000003f0: 4862 cdbc 0c8a 0dbd f0e7 813d 2748 a0bd
0.013633203 0.051015995 -0.023488201 -0.03099945 -0.10819886 0.020785159 -0.07902668 -0.10492138
-0.07122525 0.047349673 0.008434548 -0.036922246 0.050019037 -0.10013696 -0.012516144 -0.0019332368
0.0056382343 0.02145832 0.024451504 -0.032494955 -0.027607702 -0.11976514 0.07304854 0.039432947
0.026338615 -0.19000873 -0.027545627 0.019306222 0.022190047 0.009243608 -0.07627622 -0.096794486
-0.08350201 -0.07764588 -0.046897773 0.03174693 -0.08714406 -0.19731909 -0.076023914 -0.055093996
-0.0692274 0.07008559 0.018649414 -0.0504212 0.037249714 9.073329e-06 -0.058125068 -0.012714674
0.0023565034 -0.00346179 -0.101226024 -0.017021913 -0.0636975 0.062257998 0.059272427 -0.0016967452
-0.11145268 0.0032926663 0.051261026 -0.1060676 -0.032243047 -0.029826991 -0.0902789 0.024489986
-0.24740347 0.10363559 -0.022174887 -0.002560944 0.01765819 0.05544929 0.036982253 0.011649755
0.022323184 0.07863612 -0.153857 -0.062171776 0.059122123 -0.011201025 0.050202634 -0.15135211
-0.09504882 0.020874245 -0.100699216 -0.04586608 -0.1383244 0.08227416 -0.0013067104 0.013886858
0.045884646 -0.13247049 -0.029375896 -0.04653162 -0.06588141 -0.09663673 -0.050294913 0.041090496
-0.10843077 0.020597728 0.030141963 0.061645746 -0.0101144295 0.029185679 0.03161268 -0.10022898
-0.12072286 -0.09296396 0.042975925 -0.026050735 0.14715233 -0.12344249 -0.00885878 -0.16727196
0.037301134 -0.0115380455 -0.13734002 -0.009797319 -0.077381365 -0.0717911 -0.07591171 -0.111037605
-0.017718492 0.15917628 0.030537752 -0.051426735 -0.00014458451 -0.01906305 -0.0357038 -0.14733773
0.01909594 0.10279795 -0.055632733 -0.06758999 -0.076000266 -0.0054027583 -0.042819537 -0.04888979
0.025708048 0.05994156 0.075303555 -0.005841508 0.06706483 -0.11695103 -0.08406753 0.012232504
-0.08320408 0.011209962 -0.04625945 0.08477033 0.07120555 -0.13805734 -0.060354684 0.046776827
0.0027240515 -0.110707946 -0.04151077 0.035754003 0.07282942 0.040037796 -0.0909488 -0.077531025
-0.06410582 0.074975125 -0.046519425 0.1297142 0.02713904 0.0039667073 0.112635076 0.0635077
-0.09119374 -0.002845458 0.12870164 -0.009730951 0.08631878 -0.0023399387 -0.027991908 0.10827578
0.027895292 0.026045823 0.054431893 0.033769686 -0.04643533 0.08553394 -0.041057214 -0.04931837
-0.10023736 -0.07315755 0.17175935 -0.06740788 -0.0056786486 -0.05076451 -0.0351079 0.10741387
-0.009629091 0.0947262 -0.021419356 -0.02612371 -0.028829666 -0.056493018 0.02756848 0.11679448
0.09446476 0.06468875 0.03892813 -0.009448951 0.10500471 -0.0184575 0.10928837 0.042081703
-0.031306125 -0.111201346 -0.024756059 -0.09437229 -0.04946076 0.008547112 0.023512611 0.06325684
-0.032986965 -0.08950603 0.0367155 -0.0976345 0.015451017 -0.007573961 0.031710677 -0.010530962
0.072591424 -0.102297954 -0.091508985 0.064660385 0.039007965 0.025381826 -0.08999696 0.004717067
-0.1012067 0.054970395 0.070945136 0.008853856 0.10093436 -0.08062506 0.059669964 -0.03381604
-0.010161163 0.011080664 -0.016850196 -0.13784246 -0.117254615 -0.023132306 -0.029449511 -0.12813307
-0.025836088 0.11988843 -0.034428705 -0.083834924 -0.025071278 -0.03455548 0.06343067 -0.07826262

lstm.bias_hh_l0 f4 [512]
00000000: ef7c 3abd 756f a93d 27cb c8bd 4f4b 3dbd
00000010: 524c b3bd 0f28 6b3d 2cac b2bb b173 51bd
00000020: a61e d4bd 378a 75bd 5ef0 d8bd 9256 933c
00000030: e22c 4bbd 2ad2 a3bd 335c ac3c 784a dabd
00000040: 106f dbbd 8386 713c 6d42 4cbd ad05 56bc
00000050: 5a3a 50bd f73b 81bd ec4c 6b3d 708d 873d
00000060: b1e7 efbd 37d0 65be 7f7b b4bc f5d4 133d
00000070: a0f6 4d3d ec9c d0bd 61ad b7bd 96a7 f1bd
00000080: bad5 05be 7026 40bc db6d cbbd ec16 2cbd
00000090: 73a5 a9bd 696b 26be 8e4a 3d3c 3f4a adbd
000000a0: 133a 3b3d a462 433d 7887 e43d 4d98 81bd
000000b0: 56c3 383b 0f48 e4bd 473f 0dbd ccb2 02bd
000000c0: 2fe0 96bd 12a0 88bc 415a 693c 8d0f 623b
000000d0: c228 29bc 25a1 bc3d 334c c2bd 5d8a b5bd
000000e0: d864 34bc ee71 d2bd 479b 373e c937 13bb
000000f0: 1ed7 11be f48e afbd 91d1 9bbd 06b2 bd3c
00000100: 0f38 29be 20fe 0b3e e856 6bbd ff7c debc
00000110: 935e 4a3a 3161 373d 6b37 79bc bafc 70bc
00000120: e08c 9b3d cd58 5b3c 5c7e 1dbe fcb7 88bd
00000130: 6939 96bd 49b4 edbd 4b42 00bc 8210 4cbd
00000140: 3952 05bd acff 8fbd dde5 ab3a e4be 50bd
00000150: dfc3 9bbd 124d 15bc 1213 aabd 14c0 653d
00000160: ada8 f2bd fb96 263c a6d9 dfbc 0170 4c3d
00000170: e018 b0bd cf42 193d 96a8 08bd a4bf 6abd
00000180: dc9f dcbd 0c2f 01bd fa7f 36bd 67e8 b4bc
00000190: 66b8 1bbd 524c f4bd ba69 0c3d 8c8c adbd
000001a0: c9c5 38bd a554 e2bd 42c8 51bc c9dc 15bb
000001b0: 6a5b a53d 7d54 61bd ce36 733c 7c35 b5bc
000001c0: 8d27 bdbd aa8b 9d3d 5b99 593c c806 86bb
000001d0: 15ab 48be f693 873c d557 9c3b e836 05be
000001e0: f7b2 e8bd 2e64 be3d 9590 56bd f8b9 4fbd
000001f0: 3322 0bbc 7872 cbbd 5731 543d 456c 72be
00000200: 28b7 a9bd 3e3a 65bd b949 af3d baeb 333d
00000210: f0c1 013d 6665 6d3d 92e6 c439 7d62 eebc
00000220: 9f63 0a3d 7746 51bc 2876 4bbd fb0b d7bc
00000230: b3c5 a33c d0cc 82bd 60c7 53bd 5e43 663d
00000240: 7c53 91bc 1d77 edbb 710c c8bd 393a 5d3d
00000250: deb3 98bc 465d 01be ecb8 003c 50ba 083d
00000260: 3a55 643d b407 53bd 3355 1ebe a54e b93c
00000270: 3f1d 9f3d 2aa1 d1bc 32b7 1dbe 428b 5dbd
00000280: 663b c03c 5d86 863d fe71 3fbc 8466 aabb
00000290: 5680 983c 160b 93bd 9044 c9bc 44c9 9a3c
000002a0: d66f 21bd d331 01b9 5fab 013e d639 553d
000002b0: 951f 0cbd 9462 00bd 2af4 e9bc 99bd ed3d
000002c0: 3d0e 60bc f896 64bd 6a6f 9bbd 0b4c bc3d
000002d0: 69cf 853d 7355 7cbd a410 a63d 24e7 8e3c
000002e0: 40f9 45bc 4c24 d0bd dd8e 003e a68b 94bc
000002f0: 12f8 3b3a cb83 b7bd 768b c5bd e1ea a33d
00000300: e429 31be af47 843d 1e9e 0ebd 6cd1 81bd
00000310: 093d ab3d 6528 663d acf1 27bc 12c6 cb3d
00000320: c146 b63d f559 bcba 02e1 7f3c 8cca 2d3b
00000330: 4795 ca3d 7670 98bd a8cd 15bd 6c1d 83bd
00000340: d810 efbd 38b8 783c 9f27 853c 17be 1bbd
00000350: 4e74 8fbd 6943 003e e1ee 483d a90d 3e3d
00000360: 9288 65bc d5e0 46bb 1524 a0bd 12ed e23c
00000370: 6943 b7bd f51d cf39 fa9f d2bd 0f6a 3ebd
00000380: 6af1 893d 2b48 24bd 33ef b03c e6ad fc3c
00000390: cc44 383d 5a10 ee3c 0dca 34bd 2db3 88bd
000003a0: 842c 823c 7db8 aabd 44f3 023e 30a8 0abd
000003b0: 2ffc c23d 1cb9 c53b 13a7 633b ebc1 28bd
000003c0: 2b0a 263d c7fd 61bd 3498 173d 815c 74bc
000003d0: b2d3 cebd c978 01bd 1bc8 923d da52 eabc
000003e0: 7e15 393d 4ba8 0c3e 5a7e cb3d 0472 85bb
000003f0: 0b04 253d 4bac e63c 9c16 753d 009c 5bbd
-0.045529302 0.08273212 -0.09804373 -0.046214398 -0.08754791 0.05741125 -0.0054526534 -0.051135723
-0.10357408 -0.059946265 -0.105927214 0.017985616 -0.04960335 -0.0799907 0.021040058 -0.10658735
-0.10714543 0.014741543 -0.049868036 -0.013062877 -0.0508369 -0.063102655 0.057446405 0.06618774
-0.117141135 -0.22442709 -0.022031544 0.036091764 0.050284028 -0.101861805 -0.08968616 -0.117995426
-0.13069811 -0.011727914 -0.09933063 -0.042014048 -0.0828351 -0.16251911 0.01155342 -0.08461427
0.04570968 0.047701493 0.11158651 -0.06327877 0.0028192601 -0.111465566 -0.034484174 -0.031908795
-0.073669784 -0.01667789 0.01424271 0.0034494132 -0.010324659 0.092104234 -0.0948719 -0.08864281
-0.011010371 -0.102756366 0.17930327 -0.002246367 -0.14242217 -0.08572188 -0.07608331 0.023156177
-0.16525291 0.1367116 -0.057455927 -0.027159212 0.0007719781 0.044770423 -0.015210967 -0.014708692
0.07595229 0.013387871 -0.15380234 -0.06675717 -0.07335169 -0.11606652 -0.0078283055 -0.04982043
-0.032549117 -0.070311874 0.0013114769 -0.050963297 -0.07605719 -0.009112613 -0.083044186 0.056091383
-0.118485786 0.0101678325 -0.027325463 0.049911503 -0.085984945 0.03741723 -0.0333639 -0.05731167
-0.10772678 -0.031539008 -0.04455564 -0.022083474 -0.038017653 -0.119286194 0.034280516 -0.08474073
-0.045110498 -0.11051301 -0.012804093 -0.0022867194 0.080740765 -0.055012215 0.014844609 -0.02212023
-0.09236059 0.076926544 0.013281192 -0.004090164 -0.19596513 0.016550045 0.0047712126 -0.13009226
-0.1136226 0.092964515 -0.052383978 -0.050714463 -0.00849204 -0.099339426 0.051804867 -0.23674114
-0.082868874 -0.055963747 0.08558983 0.04392598 0.031679094 0.05795803 0.00037555821 -0.029099697
0.033786412 -0.012773148 -0.04967323 -0.02625083 0.019991731 -0.06386721 -0.05170381 0.05621659
-0.017740004 -0.0072468654 -0.09767998 0.054010604 -0.018640455 -0.12633237 0.007856589 0.033380806
0.05574534 -0.05152102 -0.15462188 0.022620508 0.0776925 -0.025589544 -0.15401915 -0.054087885
0.023465823 0.065685965 -0.011684893 -0.005200209 0.018615883 -0.07179849 -0.024568826 0.018894799
-0.039413296 -0.0001232096 0.12663029 0.05205711 -0.034209806 -0.03134401 -0.02855881 0.116084285
-0.01367527 -0.055808038 -0.0758961 0.091941915 0.06533701 -0.06160493 0.08108643 0.0174442
-0.012083352 -0.10163173 0.12554498 -0.018132996 0.0007170449 -0.089606844 -0.09645741 0.08003784
-0.17301136 0.06458985 -0.03481876 -0.06338772 0.08361251 0.056190867 -0.01025049 0.09949888
0.08900214 -0.0014370071 0.015617611 0.0026518432 0.09891754 -0.07443325 -0.036573082 -0.06402096
-0.116731346 0.01518064 0.016254244 -0.03802308 -0.07004605 0.12525715 0.049055938 0.046399746
-0.014009612 -0.0030346413 -0.07819382 0.027700935 -0.08948404 0.00039504436 -0.10284419 -0.046487864
0.06735499 -0.040107887 0.021598434 0.03084464 0.044987485 0.029060531 -0.044138003 -0.066748
0.015890367 -0.083359696 0.12788111 -0.033851802 0.095207565 0.0060340296 0.0034737035 -0.04120056
0.04053704 -0.05517366 0.037010387 -0.014914633 -0.100989714 -0.03160933 0.07167073 -0.02860396
0.045186512 0.13736074 0.09936209 -0.0040724296 0.04028706 0.028158328 0.059836015 -0.05361557

lstm.weight_ih_l1 f4 [512, 128]
00000000: 7def f9bd f8e7 80bd 6e74 953c 04b8 c1bc
00000010: d8c1 463d d49f a4bb 3894 4fbd 42fd c83c
00000020: 9b16 79bc 8dd8 d1bd 0372 1abd 316c a5bd
00000030: 6af5 113d 8364 963d 2418 593d 25b3 03bd
00000040: 4408 16bd eeba 33bc 6e30 4ebd 8128 553d
00000050: 3635 c23d 0ec0 be3c 6a90 8cbd 660e 6d3d
00000060: 6a69 c03d 198b 883d e096 59bd 6bd9 9fbd
00000070: 9314 ddbd f867 b0bd 72cd 8e3d 6764 ccbc
00000080: b0a5 863d 9d2c 693c d3ca 613c 1c51 2c3c
00000090: aed2 53bd d0a4 1bbc fabf bd3d 6c49 0f3e
000000a0: d695 8dbd 0ad2 abbd 1d8a 543d b8ac 7e3d
000000b0: 466e 8f3d 3336 b03c 0196 adbb 5eac 11bd
000000c0: fec3 ae3c a2cc cf3d 9037 893c a71c 8abd
000000d0: 5279 af3d c16c 0e3d 8d97 cc3d e9ed a1bc
000000e0: 9e53 003c 6ee5 093d 7154 53bd 41a9 873d
000000f0: 6fc1 103e 51be 07be 1476 5fbd b182 07bd
00000100: d042 a63a ce20 3236 a4ce ad3d 2bea 32bd
00000110: a53e c2bd 1103 3d3c b7ed cd3c 2905 fdbc
00000120: 4837 b43c 3541 1ebc 20ca e7bb 6cb0 49bd
00000130: ad06 bdbd efc0 9a3d 7d77 88bd 5932 a6bd
00000140: 771f 29bc e935 ac3d 4017 5d3d b44e 693d
00000150: fef1 3a3d 4b2f 013d 85f7 0e3d 105f 76bd
00000160: 1022 8cba ed81 05bd a437 ba3a 967f 84bd
00000170: 04b4 9e3a 526b 603b e135 bd3d 8095 adbd
00000180: aa81 61bc 757e 05be 161d bebd e0c1 9b3d
00000190: f1f3 513d 2e8b 5f3d 8225 8c3d cf40 a33d
000001a0: 865f e5bc cb54 06be e92a 9cbc b51e 93bd
000001b0: f30a 9b3d 0afa ae3d d45e b23d 14f6 7ebc
000001c0: 7901 363c 44e7 42bd c076 89bd fa39 023e
000001d0: 4118 02bd 2083 96bd 4c7b 48bd fa84 0039
000001e0: 6aa5 49bb 4da3 363a 2cd8 4fbc 7a48 9e3d
000001f0: 2abf 5abc 7df2 7f3c aa73 963c 3087 13bd
00000200: 30c0 ddbc e57d f2bc 6e4d 7f3d 1fe6 a53b
00000210: 7ab5 b83d 3d30 993d 124f 01bd 099f 1dbc
00000220: 8773 97bd c59b 6ebd 466f 86bc 598e 9dbd
00000230: c59a 2b3e 2981 37bc 4eaa 96bc 55d9 08bb
00000240: 8c02 093c b157 d5bd 12a4 eabd 0e96 a63d
00000250: 4bcf 06bb bde7 3cbd 6df0 76bd 51f6 3abd
00000260: 6c4a d7bc 057e ad3d 6b7a a83d 64e8 f83c
00000270: 57bf 1b3d 059d 2e3d 9ebc 203d df47 a73c
00000280: 17b4 d3bd 878f 03bd 265d f03d 09b9 9ebd
00000290: 88f9 f2bd fcec ba3d c8c1 773d 6ff7 ac3d
000002a0: 0ee8 f3bd 8a24 6fbb a441 39bd 8ebf e83d
000002b0: 5593 0bbd abcc 19be 1c4b 363d 48a2 11bc
000002c0: efb4 f1bc 4cc4 313c 71bc a0bd 70d5 b6bc
000002d0: c127 ed3c 449b fd3d 61df 42bd b1b7 9c3c
000002e0: 6a9b ed3c 7a88 d03c 66b9 b7bd d6c9 543d
000002f0: b719 eb3d a3be a0bc e7f8 1fbc 2ba6 2f3c
00000300: 9e51 f53c 16a9 3c3b 5545 7a3d c1cd 673d
00000310: c672 e2bd 859f 8ebd 9ca2 6abd 48f5 51bc
00000320: 6e37 92bb 3f39 4f3d 9051 003d dd5f 7cbd
00000330: 77b1 79bd 656f 98bc d005 12be 0b9c 543c
00000340: da3f 17bc c117 013e 0195 87bc f93f b4bc
00000350: 6b2f 4abd 025e 1c3b fab2 313b af82 10bd
00000360: 9833 523d 59be 0ebc 5302 c8bd e6f7 88bd
00000370: 6860 4e3d 7105 be3c 9919 7f3d 29e9 593c
00000380: 0f55 06bd f813 d13b 3dd9 153d c296 4b3d
00000390: bb89 393d 9f6a 193d 767c eb3a 753c 563d
000003a0: 28b1 5dbb 71ef f23c 58ac 233d 019d 37be
000003b0: 1644 9f3d 21a2 083d d4c9 043d b6f9 633d
000003c0: 9a71 9bbd 9a9e 863b 1894 793d bd35 9abc
000003d0: 15e6 edbd 1abd bdbd eca9 aabc 25fa b5bd
000003e0: da15 81bd 2b3b 9dbc d97f 89bc fd48 173c
000003f0: b1e3 33bd 5749 66bd 3d72 65bd aa3d 8b3c
-0.12203882 -0.062942445 0.018243995 -0.023647316 0.048524708 -0.005023936 -0.05067846 0.024534825
-0.0152031435 -0.10246382 -0.037706386 -0.080772765 0.035634436 0.0734339 0.053001538 -0.032153267
-0.036628976 -0.0109698605 -0.050339155 0.05204058 0.094828054 0.023284938 -0.06863482 0.05787506
0.09395106 0.06667156 -0.0531224 -0.07805141 -0.1079494 -0.086135805 0.06972779 -0.02495022
0.06574571 0.014231828 0.013781267 0.010517385 -0.05171459 -0.009499744 0.09265132 0.13992852
-0.069133446 -0.08389671 0.051889528 0.062176436 0.07003455 0.02151022 -0.005297423 -0.035564773
0.02133369 0.101464525 0.016750127 -0.06743746 0.08568062 0.034771685 0.099898435 -0.019766765
0.007832436 0.033666067 -0.0515942 0.066240795 0.14136289 -0.13256194 -0.054555967 -0.03308362
0.0012684707 2.6543162e-06 0.08486679 -0.04368035 -0.09484605 0.011536376 0.025137765 -0.03088625
0.021999016 -0.009659101 -0.0070736557 -0.049240515 -0.09229789 0.075563304 -0.066634156 -0.08115072
-0.010322443 0.0840872 0.05397725 0.056959823 0.045640938 0.031539243 0.03490402 -0.060149252
-0.0010691304 -0.03259461 0.0014207256 -0.064696476 0.0012108092 0.0034243655 0.09238792 -0.084757805
-0.0137638245 -0.13036521 -0.092828915 0.07605338 0.05125803 0.05457609 0.068430915 0.07971346
-0.02799965 -0.13118283 -0.01906343 -0.07183591 0.07570448 0.08543785 0.08709493 -0.015561599
0.01110875 -0.047583833 -0.06712103 0.12717429 -0.03176141 -0.07349229 -0.04894571 0.00012256569
-0.003076876 0.0006967083 -0.012685817 0.077286676 -0.013351241 0.015621779 0.0183657 -0.036017597
-0.027069181 -0.029601047 0.062329702 0.005062833 0.09018989 0.07479904 -0.031569548 -0.0096204365
-0.07395082 -0.058254022 -0.016410481 -0.07693166 0.16758259 -0.011200228 -0.018391754 -0.0020881493
0.008362424 -0.104171164 -0.11457075 0.081340894 -0.0020570334 -0.04611944 -0.06028788 -0.045645062
-0.026280604 0.08471302 0.082264744 0.03038425 0.038024273 0.042630214 0.03924238 0.020420013
-0.10337084 -0.0321193 0.11736517 -0.077501364 -0.118640006 0.091272324 0.06048754 0.08445632
-0.11909495 -0.0036490285 -0.045228615 0.11364661 -0.034076054 -0.15019481 0.044505224 -0.0088887885
-0.029505221 0.0108500235 -0.07848442 -0.022318572 0.02894962 0.1238313 -0.047576312 0.01913056
0.029004771 0.025455702 -0.08970909 0.0519503 0.11479514 -0.019622153 -0.009763933 0.01072077
0.029946145 0.0028787307 0.061101276 0.056592707 -0.110570475 -0.0696402 -0.057283983 -0.012814827
-0.004462174 0.050591704 0.031327784 -0.06161486 -0.06096026 -0.018607805 -0.1426003 0.012976657
-0.009231532 0.12606718 -0.016550543 -0.02200316 -0.049361628 0.0023859744 0.0027114735 -0.03528088
0.051318735 -0.008712375 -0.09766068 -0.06687908 0.05038491 0.023195954 0.06228027 0.013300219
-0.032795962 0.0063805543 0.036584128 0.04970432 0.045297366 0.037455197 0.0017966169 0.05230375
-0.0033827517 0.02965519 0.03995928 -0.17930986 0.07776658 0.033357743 0.03241904 0.055658065
-0.07590027 0.0041082622 0.06093225 -0.018824453 -0.1161615 -0.09264584 -0.020832978 -0.08885602
-0.06302996 -0.019193253 -0.016784595 0.00923371 -0.043918315 -0.056222286 -0.05601715 0.016997177

lstm.weight_hh_l1 f4 [512, 128]
00000000: 19cd 04be 91e9 f0bd bef3 fabd fd55 b03c
00000010: 15b8 cfbd 1539 613d f6d3 173d 29cf 833b
00000020: 7039 b9bc cdfe fbbc 421d 10bd fede ae3c
00000030: a980 ca39 adc8 0a3e a8ac 583d 27fc eebb
00000040: 135e c03b 973f 85bb eb23 aebc 2fbd 81bc
00000050: f283 4f3c 9232 ba3c 8279 503b c5fc a3bd
00000060: bc03 babd a5fa ef3c d29b a73b 1b16 16bd
00000070: a15a 15bd 7a23 433d d938 bc3d 1834 a3bd
00000080: 1923 f23c 54b0 3a3d 28b2 8a3d ecb4 8b3d
00000090: f794 b13d 1894 3bbd 4470 3abd 8c51 423d
000000a0: 24a6 a1bd 8d41 7e3d b83d bf3d 8435 4ebd
000000b0: f84d ea3c 06a3 953d 654c 0b3e b968 8a3b
000000c0: c4df 893a 04d6 713d 421f ccbc a9df 17bd
000000d0: 45b4 6a3c 9013 ae3b 34b9 5c3d 8fc2 c0bc
000000e0: 049f ccbd f25c 92bc d2a5 37bc ddf0 c63c
000000f0: cf29 5e3c e27a d1bd 66cf 1a3a d76b 9039
00000100: e667 c63d 51fc f3bd 12b5 ecbd 5aba 073e
00000110: 81c9 1c3c cf59 9bbd b205 c4bb e764 9dbc
00000120: cf90 c53d d0ff e2bc 0e56 a8bd 636c 6e3d
00000130: af55 7a3d 8917 f9bd 2cc5 513d abaa 723d
00000140: 2236 c4bc 8783 cbbd d146 42bd 3d2f b7bc
00000150: 9ab7 373d 49bd a2bd cc59 1c3c 6d34 c6bd
00000160: 01c1 f33c 0823 15bd a794 7abc f25c 443d
00000170: c793 573c 71a3 1ebd e79f 51bd 5aef e93c
00000180: 403e 983c f8c8 4abd 7f4a 01be 5866 8fbd
00000190: 1844 0bbd 4a0b 4ebb 6a02 8e3c fbc9 363d
000001a0: 9407 363d 86f3 593d f22b 73bd b6f9 293d
000001b0: 785b ac3d c724 cb3c 4779 63bd 7532 013d
000001c0: b9b0 a3bd 5b34 0abd 99f8 86bd d40c 963d
000001d0: 482f 9abd ea6d d4bc 2d93 d1bd bb3b 8f3d
000001e0: 2fc5 6a3d 69e5 5cbd e1f0 033e 5eef 43bd
000001f0: f91f 8c3d e77e 3f3d b249 8cbc e072 27bd
00000200: 1307 fa3c caa8 cdbd 7b16 babd 3c56 d93d
00000210: 6075 0f3d c970 123d d586 81bc 277b 823d
00000220: 8286 f8bd 1563 bf3d 88ac 06bd 2391 853d
00000230: e85b f53d 12c7 b8bc ecf0 d13d ebbf 34bd
00000240: 402f ee3d d121 0fbd edc8 73bd 3c33 82bc
00000250: a0c5 103c 3f8d 49bd df14 053e 3fb5 c0bd
00000260: f2d7 9cbc 493f d63c 7c43 10bd a049 553b
00000270: f99a 4bbd 8c77 c0bc c8b6 24bd 5a13 6dbc
00000280: fef7 1fbd dd88 833d 6f50 3e3d e061 4e3c
00000290: e346 0e3d 8d8a 91bd 1e7e 7d3c d507 7bbc
000002a0: 79dc 853d 2c71 f9bc 31db a83d a9b6 19bd
000002b0: cb07 08bd f2db f33d c221 b33c 6888 48bd
000002c0: 37b3 a73d 386b 553d 1c05 a03a 4750 1b3d
000002d0: 537c 86bd e205 b53d 5467 ab3d 422f 3fbc
000002e0: 0e1a abbd 8255 073c cbd7 09bd 1a1d 26bd
000002f0: a0e1 86bd 1ed7 86bd 191f b93c 89f7 72bc
00000300: 0ccc f93b 50d0 b7bc c577 acbd 8a27 b6bc
00000310: 646d bf3c d1c6 52bc 5c59 0d3d d7f0 26bd
00000320: eac8 7b3d 0367 1abd d158 58bd f93d 003e
00000330: 155a 223d 946c 5fbd b553 54bd 3529 273c
00000340: bf14 be3d e84f e7bd ca09 debc b295 673d
00000350: bc56 b83d 4edd eebd fba7 db3c a018 64bd
00000360: 9264 af3d b216 e93c 8c7f 073d a206 27bd
00000370: dbb8 a3bd 199d 49bc 2deb 59bd 81de b93d
00000380: fe56 fcbc 3631 a2ba 32ac 0e3d 23e8 a63d
00000390: 5684 b7bd 7d53 f13a 5481 0abd 334c ea3d
000003a0: c629 d7bb ac46 a7bd 87b2 74bd 8c80 043e
000003b0: 7b6d 8c3c 2c29 f43d 1739 c9bd 0841 7e3c
000003c0: 018b b4bd add9 403d 5006 f5bd 9ea8 d6bc
000003d0: 925e 92bd f088 8a3d a02e f3bc 936e c83d
000003e0: 5fab e9bc 3aff 69bd a4eb 5f3d 1ec4 1a3c
000003f0: 9583 d73d 4682 c63d 527f 863d fcbb 0ebd
-0.12968864 -0.11763299 -0.122535214 0.021525377 -0.10142533 0.05498608 0.037067376 0.004022498
-0.022610396 -0.030761147 -0.035184152 0.021346565 0.00038624302 0.13553114 0.052899033 -0.0072932425
0.0058705895 -0.0040664184 -0.021257361 -0.01583728 0.012665736 0.022729192 0.0031810706 -0.08007196
-0.090827435 0.029294321 0.005115011 -0.036642175 -0.036463384 0.047641255 0.0919053 -0.079689205
0.029557751 0.045578316 0.06772262 0.068216175 0.08670991 -0.04579553 -0.04551722 0.04744105
-0.07893017 0.062074233 0.09337944 -0.050344005 0.028601632 0.07306485 0.13603361 0.0042239097
0.0010518958 0.05904199 -0.024917249 -0.037078533 0.014325206 0.0053123906 0.05388756 -0.023530273
-0.09991267 -0.017866585 -0.011208968 0.024284774 0.013559773 -0.10228516 0.00059055386 0.00027546167
0.09687786 -0.1191336 -0.11557974 0.13254681 0.009569527 -0.07585489 -0.0059821242 -0.019213153
0.09646761 -0.027709872 -0.08219539 0.058208834 0.06111687 -0.12162692 0.05121343 0.059244793
-0.023951594 -0.09937196 -0.047430817 -0.022361392 0.04485283 -0.079462595 0.009542894 -0.09677968
0.029755117 -0.03641036 -0.015294231 0.047940202 0.013157791 -0.03873009 -0.051177885 0.028556515
0.01858437 -0.049508065 -0.12626074 -0.070019424 -0.034000486 -0.0031439834 0.017335135 0.044626217
0.04444082 0.053210758 -0.05936808 0.04149791 0.08415884 0.02479781 -0.05553558 0.03154226
-0.079926915 -0.033741336 -0.06590385 0.073266655 -0.075285494 -0.025931317 -0.1023315 0.069938146
0.057316955 -0.05392972 0.12884857 -0.0478357 0.06842036 0.046751883 -0.017124984 -0.040881038
0.030520951 -0.100419596 -0.09086319 0.10612151 0.035024047 0.03575209 -0.015811363 0.06371146
-0.1213503 0.0934507 -0.032879382 0.06521823 0.1198042 -0.022555862 0.1025103 -0.04412834
0.11630106 -0.03494436 -0.05951779 -0.015893571 0.00883618 -0.04920697 0.12996243 -0.0940957
-0.01914594 0.026153224 -0.035220608 0.0032545105 -0.04970834 -0.023494504 -0.040213376 -0.014469946
-0.039054863 0.06422589 0.046463426 0.012596577 0.03473557 -0.071065046 0.015471963 -0.0153216915
0.065361924 -0.030449472 0.082449324 -0.037527714 -0.033210557 0.119071856 0.021866683 -0.048958212
0.081884794 0.052104205 0.0012208554 0.037918355 -0.06566682 0.08839013 0.08369318 -0.011668982
-0.08354579 0.008260133 -0.03365306 -0.040555097 -0.06586003 -0.06583999 0.022597836 -0.014829525
0.0076232012 -0.022438198 -0.08421282 -0.02223565 0.023367591 -0.012864784 0.034509048 -0.040757027
0.061470903 -0.037695896 -0.052819077 0.1252364 0.03963669 -0.054546908 -0.05183764 0.010202696
0.09281301 -0.11294538 -0.027104277 0.056539245 0.09000918 -0.11663304 0.026813498 -0.055687547
0.08564104 0.028453205 0.033080623 -0.04077781 -0.07994243 -0.012305521 -0.053202797 0.090756424
-0.0308032 -0.0012374285 0.034832187 0.08149745 -0.08960788 0.0018411722 -0.033814743 0.11440315
-0.006566259 -0.081677765 -0.05974057 0.12939662 0.017142048 0.119219154 -0.09825342 0.015518434
-0.088155754 0.04708259 -0.11964095 -0.02620345 -0.07146944 0.067644 -0.029685318 0.09786715
-0.028524099 -0.05712817 0.054668084 0.009446172 0.10523144 0.096928164 0.06567253 -0.034847245

lstm.bias_ih_l1 f4 [512]
00000000: 8f93 f83d e39d 5c3d 4d3c 8e3d c217 523d
00000010: 9bda c03d c306 b33d 1c9d d73d 70ae 76bc
00000020: 837a 4bba a106 493d 1bd5 ca3b af1f 09be
00000030: d4d3 d43d 5718 843d 40c5 16bd 020f 7d3d
00000040: 221d 14bd cb0f d9bc d24a 88bd b432 ed3d
00000050: 9a13 d63c 0e77 96bd fa07 893d 94b1 2c3d
00000060: eab4 93bc 5fd8 8b3d 1783 be3d 8df0 3c3a
00000070: 646f e3bb f483 c7bd 1ba4 033e f350 45bd
00000080: 9509 e6bd 8fc3 a03d 3fae cfbb 4200 63bd
00000090: d85f 013d fd1e 4bbd 06c9 db3d 80da 573d
000000a0: d205 f8bd 45c4 073d 0962 d73c 41dc c7bb
000000b0: f028 a4bc 1cbf 0c3e c6cf fcbc c24c 4fbd
000000c0: ce10 903d e2f8 5dbc cf46 e13d 3730 90bc
000000d0: 36c1 a9bd 5bbf f6bb 9830 13bd 7811 6c3d
000000e0: f604 a93b f4e6 27bb 7cd4 463d fcd9 e43a
000000f0: 413a e63c 40c7 debc 664f 1f3d 980a f03c
00000100: 9611 03be 6879 b63c 1cb2 01bc 4b81 ae3d
00000110: 51ce fcbd bddd e23d caeb acbc 5d68 b13d
00000120: 4d81 c4bb 3b08 01bd 4147 1abd 9e29 d13b
00000130: 8a39 edbc 1853 8f3d eccc 943d bff5 f9bd
00000140: da12 99bc 0816 a83d 9886 053c 4c26 4c3d
00000150: 5036 c93c 88a5 463d ae10 943d 0f09 c4bd
00000160: b390 a0bd dcb9 c3bd 2e3d 643d bcde c9bd
00000170: 29c5 9ebd 3754 dfbd cd58 303d aedc a83d
00000180: 4488 dbbd 872f d8bd 46cb 283d e2b0 f6bd
00000190: ea32 743c a870 e13b 35cd 943c c9fa 9d3d
000001a0: 59fb 74bc f079 01bd 80e3 11be 51ff ad3d
000001b0: 5864 7b3c 6eab a73d 569d 4bbc 470e 05be
000001c0: 5882 5d3d 92c8 a2bd 64aa 033c 672c c53d
000001d0: 77e8 693a 3b18 e23c 9614 e93d 5a1a 7e3d
000001e0: c2c8 5b3d 9947 913d a110 e33d 7a8c ae3c
000001f0: aa0e 39bc 1f31 73bd 3278 3e3d 8984 d4bc
00000200: 0f55 823d c303 123d acfa 903b 1114 ebbb
00000210: 9eb0 5e3d 26f9 0b3d 67b7 0d3e 142b 18bd
00000220: ee3f a9bd 2df2 fe3c 9599 99bd fa72 9dbd
00000230: 1d4e 003d 20f1 933b 2422 033d bee2 e83c
00000240: 1144 fc3d 4462 173c 3918 3bbd bf12 e039
00000250: 7e5a 333d 70ba fdbd 05c0 753d b119 6abb
00000260: be0b 133e e1ea 863c 8a8b 893d 1ef7 2ebd
00000270: 48c1 293b 8f13 e1bd f096 e63d e103 84bc
00000280: 64e6 23bd bd74 e83b 03a2 063e 2ce1 2fbd
00000290: 4494 b13c d968 50bc 0660 6e3c e93c 99bd
000002a0: 0f63 82bd 5a7a c43d 657d a939 7300 14bd
000002b0: 4b45 d2bb d6d6 a83d a36a 083e 33fe dfbd
000002c0: 18ac 81bc 8e26 583d 1102 eb3d e87f 043e
000002d0: b0f6 46bd 39d8 7abd cdda 36bc afc5 8c3d
000002e0: 4fae 4b3d 34b7 e2bb a5a0 003d 82e3 7ebd
000002f0: e8b3 4dbd 8ca7 be3d 8917 2dbb a6d4 513d
00000300: cbc4 61bd 0f12 b23d 65c2 b73d 012c c53d
00000310: 6115 0abd 8682 ac3d a4ec 74bd ec5f 083e
00000320: f78d c4bc d0dc 963c e8d2 a8bd 6176 513d
00000330: 63bd 31bd 8d4d c0bd 1b5c 23bc 0d55 a33d
00000340: 4087 4b3d f30b 78bd 22b3 813d 0c24 e93c
00000350: af82 6e3d df8c 833d 0049 223c 197b 4ebc
00000360: 79dc 7ebd e273 283d 185b e3bc 011b 89bc
00000370: 24ca f73c c219 0ebd be76 523b e90e 8fb9
00000380: 84cb bcbd 5dd5 a2bb 3bde f43c e477 d1bc
00000390: 1595 843c 4ed5 c9bc 900f 2c3c a19a 5fbd
000003a0: 0ece afba a820 36bc 946e 26bd 067c fc3d
000003b0: f25e fd3d 0ac9 eabb 9da2 58bc 6034 acbd
000003c0: e480 cc3d 5dd6 9bbd 194f f73d ca58 de3d
000003d0: 745e cbbc dde1 80bd 3e4b 043d b274 813d
000003e0: 1aa1 2a3d 1573 4c3d 2092 763d 6ee5 f03d
000003f0: 688c 1139 54a4 96bd c2a9 4e3d b79d b33d
0.121375196 0.05386151 0.06945095 0.05129219 0.09416696 0.08741524 0.10528013 -0.015056238
-0.0007762091 0.049078587 0.006189955 -0.13390993 0.103919655 0.06449955 -0.036809206 0.06178189
-0.036160596 -0.026496788 -0.06654896 0.115819365 0.026132394 -0.07346927 0.066909745 0.04216154
-0.018030602 0.06828379 0.09302347 0.0007207476 -0.006940769 -0.09741965 0.1285557 -0.048172902
-0.112322964 0.078498 -0.0063379104 -0.055420168 0.031585544 -0.0495901 0.107317016 0.052698612
-0.12110485 0.03314616 0.026291864 -0.0060992544 -0.020039052 0.13744777 -0.030860793 -0.05061031
0.07034455 -0.013548108 0.10999834 -0.017601116 -0.08288805 -0.0075301356 -0.035935014 0.057633847
0.005158062 -0.0025619837 0.048542485 0.0017459984 0.02810395 -0.02719462 0.03889408 0.029301926
-0.12799677 0.022274688 -0.007916 0.085207544 -0.12344039 0.110774495 -0.021108527 0.08662484
-0.005996859 -0.03150199 -0.03766561 0.006383135 -0.0289581 0.06998271 0.07265648 -0.122050755
-0.018685747 0.08207327 0.008149765 0.04984121 0.024562031 0.048497707 0.07229744 -0.0957204
-0.07840099 -0.09556934 0.055722408 -0.09856936 -0.07752449 -0.109047346 0.043053437 0.08245216
-0.1071935 -0.1055594 0.04120948 -0.120454565 0.014904717 0.0068798847 0.018164257 0.07713849
-0.014952504 -0.03161043 -0.1424694 0.08495963 0.015343748 0.081869945 -0.0124276485 -0.12993728
0.054079384 -0.07948412 0.00803623 0.0962761 0.00089228846 0.027599445 0.113808796 0.06203685
0.053658254 0.07093734 0.11087156 0.021307219 -0.011295 -0.059373017 0.046501346 -0.025942104
0.0636388 0.03564812 0.0044244137 -0.007174023 0.054367654 0.034173153 0.13839494 -0.037150458
-0.08264147 0.031121338 -0.074999966 -0.07687946 0.031324495 0.0045148283 0.03201498 0.028428432
0.1231767 0.009239737 -0.045677397 0.00042738576 0.043787472 -0.12389076 0.059997577 -0.003572088
0.14359948 0.01646942 0.06716068 -0.042716138 0.0025902558 -0.10990059 0.11259258 -0.01611513
-0.04001464 0.0070939944 0.1314774 -0.04293935 0.021677144 -0.01272031 0.014549261 -0.07482321
-0.0636655 0.09593649 0.00032327618 -0.03613324 -0.006416952 0.08244102 0.13321929 -0.109371565
-0.015829131 0.052771144 0.114750035 0.12939417 -0.048575103 -0.061241362 -0.011160565 0.06873643
0.04972678 -0.006918812 0.031403203 -0.062228687 -0.0502204 0.09309301 -0.0026411733 0.051228188
-0.055119317 0.08694851 0.08972625 0.09627534 -0.033711795 0.08423333 -0.05979599 0.13317841
-0.023993475 0.018415838 -0.08243352 0.051138286 -0.043393504 -0.09389792 -0.00997069 0.079752065
0.04968953 -0.06055827 0.06332995 0.028459571 0.0582301 0.064233534 0.0099051 -0.012602591
-0.062221978 0.04112614 -0.027753398 -0.01673651 0.030247755 -0.034692533 0.0032114233 -0.00027286194
-0.09218505 -0.0049692825 0.029891124 -0.025569864 0.01618437 -0.024637844 0.010501757 -0.054590825
-0.001341285 -0.011116184 -0.0406328 0.12328343 0.12371625 -0.007165079 -0.013222364 -0.08408427
0.099855214 -0.07609246 0.120756336 0.10856779 -0.024825312 -0.0629308 0.03229832 0.06321086
0.041657545 0.04991444 0.06019795 0.1176251 0.00013880583 -0.07355562 0.050454862 0.08770316
