ml-models/trained_models/churn_predictor.pth (torch, 68422 bytes, 19 tensors)

network.0.weight f4 [128, 25]
-0.11011439 -0.10450213 0.05761955 0.08153651 -0.14232169 0.085757256 0.037099626 0.029834628
0.04320463 -0.019737918 0.0068014776 0.04919801 0.08758868 -0.12976281 -0.1756449 -0.10647011
-0.03778743 -0.0764188 0.06566686 0.005950811 -0.15381704 -0.16948366 -0.14568327 -0.009124131
-0.10378304 0.100172944 -0.11794787 0.11000276 -0.00269804 0.13337302 -0.19257998 0.1532924
-0.048208334 -0.063560426 -0.029273119 -0.18131676 -0.08681314 -0.19093052 0.039719407 -0.26088825
-0.107074246 0.08362325 -0.1250267 0.14324506 -0.0312685 -0.09615206 0.078687824 -0.13225949
-0.15129647 0.10437942 -0.019242156 -0.14285594 0.060593225 0.18521288 0.07001789 0.110377625
0.0073382617 0.013716769 -0.052074652 0.060774975 0.06343486 0.06685347 -0.0668166 0.15608202
-0.031616885 0.13122483 0.049101707 -0.17176354 -0.11318361 0.12220576 -0.05293265 -0.13425699
-0.052993666 -0.24566619 0.23988108 0.09350833 -0.11347404 -0.0921675 0.19176821 0.15119325
-0.014038897 -0.15761368 0.0623446 0.095984936 -0.11111554 0.1849925 -0.15628552 -0.014895288
0.016905848 0.347649 -0.069475435 0.010629784 -0.06775526 -0.10576976 -0.087615915 0.01805433
-0.13900234 -0.11254 0.090278365 -0.07254569 -0.13455704 0.06258559 -0.08739948 0.09938254
-0.13288932 -0.15560178 -0.07832458 0.1121918 -0.02651873 -0.16471712 0.10295837 0.103401236
-0.07955978 -0.1747251 -0.14217427 0.0539465 0.039563484 0.023453562 0.016559398 0.007014072
-0.117304824 0.015411056 0.021367155 -0.08090307 -0.01565668 -0.13002548 0.07091287 0.1627764
-0.012070918 0.058351208 -0.15963447 0.055225994 -0.099228315 0.053519197 -0.17557503 -0.05678954
-0.19084054 -0.057086512 0.023861079 -0.02259095 0.09366075 -0.022265816 -0.04139149 0.19044203
0.0107812695 0.12630968 -0.16316567 0.029629743 -0.04855717 -0.05346807 -0.04409875 -0.026835293
0.13934448 -0.14881873 -0.085356735 -0.03192511 0.044855405 -0.17926708 0.0046944637 0.015910527
-0.059963282 0.002212049 -0.08717859 -0.09981787 -0.1232637 0.00065167295 -0.029716246 -0.034142338
0.13930249 0.10965359 -0.18406358 0.17494872 0.04655394 0.052637693 -0.13318336 -0.10967322
-0.057718128 0.030154474 0.08245101 -0.008116383 0.049851634 -0.023811078 0.030873561 0.09182037
-0.03880204 0.033040635 0.16554175 -0.17431729 0.028579874 0.21735798 0.11655907 -0.108737655
-0.024872834 -0.0017899894 -0.010559244 0.11795131 0.1702953 0.010897177 -0.038666338 0.10230545
0.16097185 -0.06180465 0.090292245 -0.08070109 -0.032344412 -0.06653776 0.10291381 -0.13830633
-0.08902644 -0.060294878 0.18316819 0.01573629 -0.20231523 -0.17434037 0.14577332 0.15302406
-0.0933915 -0.07395491 -0.15841512 -0.06900787 0.11209775 -0.12979804 -0.14335911 -0.028311519
0.18331398 -0.009093715 0.073150404 0.046346415 -0.18056734 0.11842592 0.12992106 -0.1279916
0.141902 -0.014027683 -0.0336326 -0.020758957 0.049312636 -0.10632452 0.14838803 -0.3480132
0.15744542 0.17740835 0.006555978 0.017629078 0.014013925 0.018188506 -0.03294097 0.0483058
0.036489334 -0.030880732 -0.049896874 -0.057031997 -0.06736817 -0.0010993005 -0.05818374 -0.14005542
00000000: a783 e1bd 3605 d6bd 7a02 6c3d 9dfc a63d
00000010: c7bc 11be 80a1 af3d c7f5 173d c067 f43c
00000020: 57f7 303d 6ab1 a1bc eede de3b da83 493d
00000030: b261 b33d 8be0 04be 42dc 33be 000d dabd
00000040: fec6 1abd 7681 9cbd 597c 863d 05ff c23b
00000050: 3782 1dbe 208d 2dbe ff2d 15be 617d 15bc
00000060: 348c d4bd 7927 cd3d a78e f1bd 2149 e13d
00000070: 9ad1 30bb f092 083e b033 45be aff8 1c3e
00000080: 1a76 45bd f82b 82bd 2ece efbc 1aab 39be
00000090: 16cb b1bd 4a83 43be d1b0 223d 2593 85be
000000a0: be49 dbbd ab42 ab3d 0007 00be d5ae 123e
000000b0: 6613 00bd 5feb c4bd 1527 a13d 086f 07be
000000c0: 76ed 1abe e1c4 d53d baa1 9dbc d448 12be
000000d0: 9a30 783d 72a8 3d3e 8a65 8f3d aa0d e23d
000000e0: cd75 f03b 4dbc 603c 3b4c 55bd 2eef 783d
000000f0: 23ea 813d 79ea 883d 24d7 88bd f7d3 1f3e
00000100: b580 01bd cd5f 063e df1e 493d c8e2 2fbe
00000110: cfcc e7bd 0347 fa3d e8cf 58bd aa7a 09be
00000120: e30f 59bd eb8f 7bbe 63a3 753e 4c81 bf3d
00000130: 1465 e8bd 50c2 bcbd e35e 443e 67d2 1a3e
00000140: 6703 66bc 7b65 21be 0d5d 7f3d c093 c43d
00000150: 8b90 e3bd ad6e 3d3e 5009 20be 5e0b 74bc
00000160: 227e 8a3c 0dff b13e 2349 8ebd 8c28 2e3c
00000170: 45c3 8abd d19d d8bd f96f b3bd ade6 933c
00000180: a156 0ebe 5f7b e6bd dde3 b83d d692 94bd
00000190: 52c9 09be e02c 803d 80fe b2bd 1389 cb3d
000001a0: 2314 08be 1356 1fbe a368 a0bd d0c4 e53d
000001b0: cf3d d9bc 9bab 28be d6db d23d 07c4 d33d
000001c0: 3df0 a2bd 23eb 32be 2296 11be 01f7 5c3d
000001d0: 520d 223d af21 c03c 93a7 873c 4dd6 e53b
000001e0: 833d f0bd a77e 7c3c 2c0a af3c 82b0 a5bd
000001f0: 7042 80bc 6625 05be c43a 913d dbae 263e
00000200: 1ac5 45bc ad01 6f3d 3877 23be a734 623d
00000210: 3738 cbbd f236 5b3d f1c9 33be 269c 68bd
00000220: b46b 43be 8cd3 69bd 4f78 c33c a810 b9bc
00000230: 35d1 bf3d cd66 b6bc 1f8a 29bd 3c03 433e
00000240: eca3 303c 5357 013e e714 27be 13ba f23c
00000250: e2e3 46bd 5601 5bbd e4a0 34bd b0d5 dbbc
00000260: 52b0 0e3e f063 18be 83cf aebd e7c3 02bd
00000270: 4dba 373d ca91 37be 04d4 993b cb56 823c
00000280: 0f9c 75bd 06f8 103b b08a b2bd 506d ccbd
00000290: ae71 fcbd 08d5 2a3a 7c6f f3bc d6d8 0bbd
000002a0: 50a5 0e3e 1092 e03d 2a7b 3cbe c225 333e
000002b0: 58af 3e3d 9f9a 573d 3861 08be 5a9c e0bd
000002c0: d869 6cbd 8406 f73c 13dc a83d 94fa 04bc
000002d0: 3a31 4c3d 730f c3bc 8dea fc3c 510c bc3d
000002e0: e3ee 1ebd 9e55 073d c783 293e 3b80 32be
000002f0: 5720 ea3c 1793 5e3e 86b6 ee3d d9b1 debd
00000300: 1dc2 cbbc 149e eaba ae00 2dbc 7590 f13d
00000310: e461 2e3e 138a 323c 9860 1ebd 8585 d13d
00000320: ced5 243e df26 7dbd 24eb b83d 9d46 a5bd
00000330: 937b 04bd f344 88bd 7ac4 d23d 2da0 0dbe
00000340: 7f53 b6bd c3f7 76bd 7190 3b3e 64e9 803c
00000350: b92b 4fbe 4886 32be 9a45 153e 57b2 1c3e
00000360: 0b44 bfbd ac75 97bd 9337 22be 0054 8dbd
00000370: 8193 e53d c7e9 04be bbcc 12be 8fed e7bc
00000380: a9b6 3b3e cefd 14bc e1cf 953d bdd5 3d3d
00000390: a5e6 38be 4a89 f23d 070a 053e 3b10 03be
000003a0: c24e 113e 5ed4 65bc 56c2 09bd b00e aabc
000003b0: 0cfc 493d acc0 d9bd 08f3 173e c92e b2be
000003c0: 5f39 213e 89aa 353e 88d3 d63b db6a 903c
000003d0: a99a 653c 1000 953c 1ced 06bd 4ddc 453d
000003e0: d775 153d 97f9 fcbc aa60 4cbd 629a 69bd
000003f0: 53f8 89bd 6716 90ba 1352 6ebd b06a 0fbe

network.0.bias f4 [128]
0.18861 0.029576333 -0.064064816 0.22920355 -0.08969814 -0.07980863 0.015961792 -0.09602524
0.1833555 0.18223578 -0.12643565 -0.13875152 -0.17792958 -0.058432158 -0.102739856 -0.03884604
0.12843727 0.019340497 0.0935867 -0.18365 -0.05383424 -0.101555504 0.10800875 0.20681086
0.21912424 -0.007452312 0.0031586755 0.11329794 -0.12811214 0.16907723 0.14407964 0.04731652
0.010535625 0.16683912 -0.13985604 -0.04013722 -0.056859042 0.06277985 -0.01857242 -0.094515964
-0.11688812 0.103549585 -0.030188562 -0.11674196 0.07497033 0.09360867 -0.02856535 0.159128
-0.1406207 -0.10826237 -0.05881501 -0.059852067 0.17939836 0.08991181 0.10044552 0.19311881
-0.026431354 0.0044628046 0.095161125 -0.16510661 0.10065981 0.28399205 -0.18639478 -0.1385996
-0.11064898 -0.12418442 0.16563371 -0.08402143 0.10206362 -0.11849045 0.07651954 -0.14585717
0.1764534 0.20334998 -0.051280163 0.07092034 -0.21918918 -0.14708179 0.010459011 0.08800325
-0.005282656 0.2368645 -0.10670493 0.10547327 0.048861295 0.08336237 -0.14830999 0.16558388
-0.010779413 -0.0026312282 -0.09498749 0.05016585 0.06319647 -0.041229922 -0.086274914 -0.005156981
0.030613739 0.019038614 -0.038399525 0.08138485 -0.14072044 -0.16984288 0.13509078 -0.0790632
-0.105723314 -0.04752381 0.14171527 0.11734854 -0.15877217 0.069521904 -0.022816408 0.12180084
0.16526985 0.13450348 0.16460128 0.076405674 -0.08633589 0.056104325 -0.15962063 0.016798591
-0.084423795 -0.14144278 0.17782052 -0.078305155 0.14334737 -0.041498873 0.065785274 0.075661585
00000000: fb22 413e 114a f23c 6a34 83bd 56b4 6a3e
00000010: a9b3 b7bd b572 a3bd 4ec2 823c e2a8 c4bd
00000020: 8bc1 3b3e 049c 3a3e 5978 01be e114 0ebe
00000030: 2c33 36be 8f56 6fbd 4669 d2bd 061d 1fbd
00000040: 0f85 033e f66f 9e3c 62aa bf3d bf0e 3cbe
00000050: 4b81 5cbd 55fc cfbd b133 dd3d 3ac6 533e
00000060: 1b62 603e 8632 f4bb c801 4f3b c008 e83d
00000070: d42f 03be 9522 2d3e 9d89 133e f8ce 413d
00000080: 9d9d 2c3c e0d7 2a3e 6c36 0fbe ed66 24bd
00000090: 07e5 68bd b992 803d 3025 98bc 9691 c1bd
000000a0: 0a63 efbd ce11 d43d 014e f7bc 6916 efbd
000000b0: 0b8a 993d e7b5 bf3d e201 eabc 73f2 223e
000000c0: dffe 0fbe a9b8 ddbd 02e8 70bd 7127 75bd
000000d0: 34b4 373e af23 b83d 61b6 cd3d f0c0 453e
000000e0: 9186 d8bc b83c 923b d6e3 c23d b511 29be
000000f0: bb26 ce3d 6867 913e 46de 3ebe 0eed 0dbe
00000100: ef9b e2bd 6754 febd e29b 293e 6d13 acbd
00000110: bb06 d13d 1fab f2bd 47b6 9c3d 955b 15be
00000120: 33b0 343e fa3a 503e 260b 52bd af3e 913d
00000130: 2173 60be 9c9c 16be 465c 2b3c 0c3b b43d
00000140: 211a adbb 9c8c 723e 1d88 dabd 5f02 d83d
00000150: c822 483d e4b9 aa3d 93de 17be d28e 293e
00000160: 239c 30bc af70 2cbb cd88 c2bd b57a 4d3d
00000170: 276d 813d b5e0 28bd e7b0 b0bd e4fb a8bb
00000180: aac9 fa3c def6 9b3c d248 1dbd 1aad a63d
00000190: 0519 10be 4beb 2dbe 3d55 0a3e e3eb a1bd
000001a0: 7785 d8bd 54a8 42bd cf1d 113e 6e54 f03d
000001b0: 2c95 22be 8061 8e3d 7ae9 babc b872 f93d
000001c0: 803c 293e 48bb 093e 3d8d 283e 947a 9c3d
000001d0: dfd0 b0bd a6cd 653d 9773 23be 339d 893c
000001e0: 62e6 acbd 60d6 10be 9516 363e 745e a0bd
000001f0: a7c9 123e b9fa 29bd 6eba 863d 76f4 9a3d

network.2.weight f4 [128]
0.9629988 0.9903264 0.87175053 1.0356327 0.9744293 0.93431103 0.9502548 1.0151477
0.9748527 1.0929738 0.9429508 0.9700543 0.94752306 0.9389285 0.9891579 0.97927666
1.0218607 0.98264146 1.0013167 0.96720535 0.9064889 0.9351413 0.98513895 1.0939009
1.0194315 0.97832566 1.0560442 0.99292874 1.0014182 0.92755765 0.9237927 0.95284396
1.050665 0.9773586 1.0801052 1.136679 0.90844715 1.1079218 0.9805947 0.95237446
0.95229 1.1303926 0.9595593 1.0105199 0.97339934 0.9199797 0.9608465 0.98631823
0.9686597 0.9413266 0.9498612 0.9268177 0.97112304 1.0278454 1.0035348 0.9941522
0.96654874 0.8888815 1.0628685 0.98068863 1.0367539 1.0479455 0.9485471 0.9925893
0.95196086 0.88759947 0.9061531 0.90800446 1.0114268 0.97234446 1.0127399 0.95402426
1.0667228 1.0873684 0.98546237 1.0098741 0.9663807 1.0289503 1.0597293 0.90950775
0.9439 0.9879196 0.97009414 1.0266159 0.97197545 1.0586575 0.85867554 1.1171486
0.9183205 1.0800608 1.0153868 0.9327928 0.9841755 0.9158886 1.0784084 1.0217627
1.0540135 0.9458665 0.9702491 0.9420432 0.9199283 0.95076704 0.962389 1.0342802
0.9843681 1.0498482 1.0637218 1.1215136 1.0269505 0.9992101 1.0583531 1.1096901
1.0168027 1.0240473 0.9488496 1.0451108 0.95832986 1.1073872 0.9933547 0.9527095
0.9484653 0.98154265 0.96131307 0.9169356 0.95352995 1.0141788 1.0776577 0.98404366
00000000: 1787 763f 0886 7d3f 0b2b 5f3f 9d8f 843f
00000010: 3374 793f 022f 6f3f e643 733f 5cf0 813f
00000020: f28f 793f 91e6 8b3f 3965 713f 7b55 783f
00000030: df90 723f 9e5d 703f 7439 7d3f e0b1 7a3f
00000040: 55cc 823f 648e 7b3f 252b 803f c59a 773f
00000050: a80f 683f 6c65 6f3f 1132 7c3f f204 8c3f
00000060: bb7c 823f 8d73 7a3f 752c 873f 9430 7e3f
00000070: 792e 803f 6b74 6d3f ae7d 6c3f 95ed 733f
00000080: 317c 863f 2c34 7a3f e340 8a3f b37e 913f
00000090: fe8f 683f 62d0 8d3f 4108 7b3f d0ce 733f
000000a0: 47c9 733f b4b0 903f aea5 753f b758 813f
000000b0: b330 793f ca83 6b3f 09fa 753f 5a7f 7c3f
000000c0: 15fa 773f c8fa 703f 1b2a 733f ed43 6d3f
000000d0: 859b 783f 7090 833f d473 803f c280 7e3f
000000e0: bd6f 773f bd8d 633f 130c 883f 690e 7b3f
000000f0: 5ab4 843f 1423 863f fcd3 723f 551a 7e3f
00000100: b5b3 733f b839 633f a6f9 673f fb72 683f
00000110: 6f76 813f 91eb 783f 76a1 813f ef3a 743f
00000120: 5f8a 883f e32e 8b3f 4347 7c3f 8e43 813f
00000130: ba64 773f a5b4 833f 36a5 873f 80d5 683f
00000140: 6ea3 713f 4de8 7c3f 1758 783f 2668 833f
00000150: 62d3 783f 1782 873f 29d2 5b3f bafe 8e3f
00000160: 0d17 6b3f 6f3f 8a3f 32f8 813f 82cb 6e3f
00000170: edf2 7b3f ad77 6a3f 4909 8a3f 1fc9 823f
00000180: eae9 863f 4f24 723f 3f62 783f be29 713f
00000190: 6c80 6b3f 7865 733f 205f 763f 4b63 843f
000001a0: 8cff 7b3f 6d61 863f 0928 883f c28d 8f3f
000001b0: 1d73 833f 3ccc 7f3f 1d78 873f 530a 8e3f
000001c0: 9726 823f fb13 833f cfe7 723f 31c6 853f
000001d0: 1b55 753f ddbe 8d3f 7e4c 7e3f c5e4 733f
000001e0: 9fce 723f 6146 7b3f 9d18 763f 4bbc 6a3f
000001f0: 8a1a 743f 9cd0 813f b0f0 893f 49ea 7b3f

network.2.bias f4 [128]
-0.025911598 -0.05652191 -0.0812283 -0.00243005 -0.099897854 -0.04101496 0.013500862 0.04558105
0.043430977 -0.065422446 0.0049225963 0.016480826 0.03502879 0.03726786 -0.12027124 -0.11158848
-0.06883628 -0.067618944 -0.020894205 -0.008463432 0.020412404 0.030255517 0.033725787 0.04420015
0.019689705 -0.0045554303 0.07531244 -0.00959739 -0.0074758013 0.019177249 0.05413731 -0.013270197
0.01681469 -0.026651796 0.033203326 -0.0775282 -0.09254685 -0.037654337 -0.009978877 -0.013830306
-0.07487478 -0.09587097 -0.0486414 0.048746202 -0.054586817 0.007592275 -0.019457612 0.070321664
-0.040599633 0.027445575 0.0032706726 0.037262708 -0.022050189 0.03867731 -0.07002735 0.017028617
0.08112365 -0.083086655 -0.026177758 0.034020893 0.023937806 0.076786295 0.03826637 -0.028373584
0.06745567 -0.015662428 -0.047179516 -0.057803363 -0.050538894 0.00701715 -0.066223115 -0.067361094
0.023495726 -0.078492776 -0.058224533 -0.075223275 0.012943773 0.04761367 -0.116211146 0.01137616
0.027528746 -0.07592946 -0.053530034 -0.06521674 -0.02946203 -0.05402392 0.018293893 -0.0128820995
-0.04745844 -0.06818182 -0.058441255 0.02589883 0.07252945 -0.07897121 -0.060092397 -0.08751765
-0.092508726 0.04886706 -0.0385508 -0.022999356 -0.047819044 -0.03442134 -0.07098555 0.035628594
0.042837504 -0.028098555 -0.08086284 -0.09697059 0.050677296 0.044420578 -0.052385245 0.013549635
-0.09468559 -0.07127816 -0.024936311 0.031028306 0.019362392 -0.02848946 0.00891162 0.0021038284
-0.02546271 -0.064579815 0.060941402 0.013275822 -0.0071080895 0.05434752 -0.062437613 0.035929203
00000000: 8f44 d4bc 8583 67bd 065b a6bd 7941 1fbb
00000010: 3f97 ccbd 4dff 27bd b832 5d3c 32b3 3a3d
00000020: aee4 313d 34fc 85bd bb4d a13b cc02 873c
00000030: 597a 0f3d 2fa6 183d c550 f6bd 8088 e4bd
00000040: 09fa 8cbd cd7b 8abd 532a abbc 35aa 0abc
00000050: ea37 a73c 6bda f73c 0d24 0a3d 370b 353d
00000060: 4e4c a13c b845 95bb 693d 9a3d 5f3e 1dbc
00000070: 91f7 f4bb 9b19 9d3c 15bf 5d3d 3e6b 59bc
00000080: f6be 893c de54 dabc 3600 083d 1bc7 9ebd
00000090: 3489 bdbd 6f3b 1abd 727e 23bc 8298 62bc
000000a0: f357 99bd 0058 c4bd 343c 47bd 19aa 473d
000000b0: 6d96 5fbd 9ec8 f83b 9265 9fbc ce04 903d
000000c0: cd4b 26bd 8bd5 e03c c858 563b c8a0 183d
000000d0: 99a2 b4bc 196c 1e3d 806a 8fbd 997f 8b3c
000000e0: 2824 a63d 5629 aabd bd72 d6bc 7e59 0b3d
000000f0: 3819 c43c 2242 9d3d 32bd 1c3d b86f e8bc
00000100: 3326 8a3d 7e4e 80bc 4f3f 41bd 38c3 6cbd
00000110: df01 4fbd 1ff0 e53b fc9f 87bd 9df4 89bd
00000120: 1c7a c03c d2c0 a0bd d97c 6ebd a90e 9abd
00000130: 1e12 543c 8d06 433d 1c00 eebd 1363 3a3c
00000140: f783 e13c e880 9bbd 4f42 5bbd 5b90 85bd
00000150: 5b5a f1bc 3048 5dbd 13dd 953c 710f 53bc
00000160: c863 42bd e9a2 8bbd 1960 6fbd c829 d43c
00000170: 528a 943d a8bb a1bd 7223 76bd 743c b3bd
00000180: 3775 bdbd d428 483d 72e7 1dbd 2569 bcbc
00000190: e7dd 43bd 64fd 0cbd df60 91bd 4aef 113d
000001a0: 6176 2f3d f12e e6bc 6b9b a5bd 8498 c6bd
000001b0: ff92 4f3d 5af2 353d e991 56bd 4aff 5d3c
000001c0: 85ea c1bd 49fa 91bd 3c47 ccbc 132f fe3c
000001d0: e19d 9e3c ba62 e9bc 0b02 123c 62e0 093b
000001e0: 2c97 d0bc 6c42 84bd b19d 793d d582 593c
000001f0: faea e8bb 819b 5e3d 95be 7fbd 802a 133d

network.2.running_mean f4 [128]
0.23416962 0.26989308 0.19117583 0.33600628 0.09270074 0.15625696 0.20634834 0.1403572
0.30169174 0.257762 0.14902937 0.12165497 0.11714559 0.14147443 0.13631517 0.1443615
0.22650814 0.21318677 0.23259671 0.18379222 0.18999958 0.13045388 0.2242688 0.3108402
0.3242648 0.19346121 0.12386919 0.26654783 0.16581346 0.24916625 0.2650672 0.218139
0.19407201 0.33601642 0.11712463 0.14353627 0.21358088 0.18840843 0.20525385 0.1451684
0.16963552 0.19455443 0.14506201 0.11824427 0.24709319 0.24701141 0.16542675 0.2522587
0.17582361 0.18090484 0.16444035 0.20953923 0.29702303 0.2261702 0.2396162 0.36994636
0.2637139 0.2234474 0.20781869 0.124834985 0.25743136 0.34700006 0.11264958 0.15026957
0.13102463 0.20052925 0.2911439 0.12255705 0.19497451 0.13948688 0.1893111 0.2014641
0.27924213 0.27635115 0.14281313 0.2032639 0.098778725 0.13026522 0.16572215 0.2693435
0.21942037 0.30722916 0.17165752 0.20227325 0.27684686 0.22137722 0.15920727 0.2638318
0.2014215 0.2271643 0.11944313 0.19349846 0.25570333 0.16927703 0.13960971 0.13706554
0.17880006 0.17163552 0.14275269 0.23875606 0.14011797 0.09540318 0.31923664 0.15542057
0.18592049 0.15073349 0.24264959 0.22392403 0.1578621 0.20414184 0.20408514 0.24356674
0.24476025 0.23405221 0.26376307 0.23373169 0.19689699 0.16972706 0.15456288 0.24434382
0.13336548 0.100173086 0.266432 0.1451766 0.27400294 0.14104125 0.18070945 0.25204653
00000000: 29ca 6f3e 6d2f 8a3e 99c3 433e 0409 ac3e
00000010: e3d9 bd3d d301 203e fb4c 533e ccb9 0f3e
00000020: 5777 9a3e 62f9 833e 289b 183e 3e26 f93d
00000030: 07ea ef3d acde 103e 3496 0b3e 80d3 133e
00000040: c0f1 673e a24d 5a3e d52d 6e3e 0734 3c3e
00000050: 408f 423e b495 053e b8a6 653e 7226 9f3e
00000060: 0906 a63e b21a 463e 21af fd3d f578 883e
00000070: 01cb 293e 7025 7f3e e3b6 873e d45f 5f3e
00000080: d0ba 463e 580a ac3e 0adf ef3d 2cfb 123e
00000090: f2b4 5a3e 24ee 403e 112e 523e 06a7 143e
000000a0: efb4 2d3e 4739 473e 238b 143e 0d2a f23d
000000b0: ff05 7d3e 8ff0 7c3e a165 293e 0d28 813e
000000c0: 1b0b 343e 1e3f 393e 0d63 283e 7491 563e
000000d0: 6713 983e 2999 673e f35d 753e 9c69 bd3e
000000e0: 8205 873e 65cf 643e 6cce 543e 7ca9 ff3d
000000f0: 0bce 833e fea9 b13e d3b4 e63d 44e0 193e
00000100: 522b 063e 8a57 4d3e d010 953e 31ff fa3d
00000110: 66a7 473e a6d5 0e3e c5da 413e 9b4c 4e3e
00000120: d3f8 8e3e e67d 8d3e 9b3d 123e 6924 503e
00000130: 804c ca3d 3f64 053e 11b3 293e 64e7 893e
00000140: bcaf 603e 244d 9d3e fdc6 2f3e b820 4f3e
00000150: dfbe 8d3e b6b0 623e 3b07 233e f614 873e
00000160: 7041 4e3e c29d 683e 9a9e f43d 7624 463e
00000170: 8ceb 823e f556 2d3e d9f5 0e3e e95a 0c3e
00000180: 5d17 373e 39c1 2f3e c32d 123e 787c 743e
00000190: 167b 0f3e be62 c33d fc72 a33e 9226 1f3e
000001a0: f161 3e3e e159 1a3e 2279 783e 574c 653e
000001b0: 9aa6 213e 8f0a 513e b2fb 503e 8f69 793e
000001c0: 6ea2 7a3e 62ab 6f3e f40b 873e 5c57 6f3e
000001d0: 5d9f 493e eecc 2d3e bb45 1e3e 4435 7a3e
000001e0: f690 083e 8c27 cd3d c669 883e 2da9 143e
000001f0: 1d4a 8c3e 1e6d 103e e60b 393e 3e0c 813e

network.2.running_var f4 [128]
0.05786538 0.122650705 0.10114511 0.118485115 0.022520948 0.067533046 0.062781595 0.0522924
0.1274506 0.09098666 0.06921738 0.050181538 0.04315932 0.048305437 0.048302084 0.04726898
0.0719497 0.076497845 0.057456743 0.094267786 0.08586108 0.050784886 0.07865824 0.08861651
0.11528558 0.08147153 0.020412922 0.091733456 0.07483665 0.0779537 0.09267667 0.08934977
0.06238416 0.17418791 0.036808446 0.03542485 0.34349862 0.06291953 0.07898217 0.06107081
0.0695236 0.057078153 0.045195736 0.036542267 0.0995494 0.11836284 0.06333414 0.07248712
0.082301326 0.07271096 0.061740186 0.10996636 0.11175157 0.0708522 0.093448795 0.13152768
0.12610334 0.16985697 0.06880737 0.047846086 0.10787014 0.10414444 0.04067681 0.06004043
0.049476605 0.17893656 0.13773641 0.051721543 0.059085142 0.0582413 0.059919935 0.07394969
0.083131425 0.09206421 0.05262765 0.06706149 0.038286574 0.03342784 0.054453224 0.13381709
0.094198935 0.09972067 0.07885178 0.06014804 0.12793224 0.08439356 0.07815266 0.06516745
0.10071263 0.100208364 0.041522365 0.059495993 0.086231306 0.0689098 0.04295429 0.039003506
0.05752612 0.057057746 0.045053743 0.09865483 0.06916826 0.031136747 0.108760945 0.064413086
0.08823713 0.042097196 0.08593326 0.07783141 0.08033394 0.065336496 0.073535204 0.051901396
0.074594535 0.08372276 0.08467135 0.08542077 0.11133864 0.046005536 0.06664294 0.104368016
0.040754598 0.035311457 0.08049156 0.049801614 0.09607845 0.04626056 0.053993564 0.113518216
00000000: 4004 6d3d 4b30 fb3d 2b25 cf3d 53a8 f23d
00000010: da7d b83c c44e 8a3d a393 803d 8e30 563d
00000020: 6982 023e 3757 ba3d d7c1 8d3d 288b 4d3d
00000030: d4c7 303d ecdb 453d 68d8 453d 1e9d 413d
00000040: 5d5a 933d e7aa 9c3d c357 6b3d 780f c13d
00000050: efd7 af3d d003 503d 9217 a13d 937c b53d
00000060: d91a ec3d 8cda a63d 0039 a73c c0de bb3d
00000070: f543 993d 31a6 9f3d 44cd bd3d 03fd b63d
00000080: 8886 7f3d 515e 323e 74c4 163d a619 113d
00000090: 0ddf af3e f4db 803d 67c1 a13d 6325 7a3d
000000a0: 6462 8e3d c8ca 693d 2a1f 393d 58ad 153d
000000b0: 8ee0 cb3d 3768 f23d 54b5 813d 2174 943d
000000c0: 998d a83d 7ce9 943d 47e3 7c3d 0b36 e13d
000000d0: 02de e43d f51a 913d 1562 bf3d 31af 063e
000000e0: 3c21 013e fcee 2d3e e1ea 8c3d 42fa 433d
000000f0: 05eb dc3d ae49 d53d ba9c 263d f4ec 753d
00000100: fba7 4a3d 253b 373e c60a 0d3e f8d9 533d
00000110: 4303 723d 6e8e 6e3d 9b6e 753d ef72 973d
00000120: cf40 aa3d 298c bc3d 1790 573d 8957 893d
00000130: 62d2 1c3d a1eb 083d 580a 5f3d 5907 093e
00000140: 5feb c03d 5a3a cc3d 0b7d a13d cb5d 763d
00000150: ab00 033e 88d6 ac3d 800e a03d 8376 853d
00000160: 6c42 ce3d 0b3a cd3d 5b13 2a3d 12b2 733d
00000170: 0a9a b03d 9520 8d3d d6f0 2f3d 24c2 1f3d
00000180: 82a0 6b3d 62b5 693d 468a 383d 8b0b ca3d
00000190: 17a8 8d3d 7e12 ff3c 0fbe de3d 02eb 833d
000001a0: abb5 b43d 1c6e 2c3d c7fd af3d 1366 9f3d
000001b0: 1f86 a43d 24cf 853d a099 963d 8f96 543d
000001c0: 05c5 983d d776 ab3d 2c68 ad3d 16f1 ae3d
000001d0: 8305 e43d 4d70 3c3d 187c 883d e6be d53d
000001e0: 4bee 263d bfa2 103d c2d8 a43d c7fc 4b3d
000001f0: c7c4 c43d b77b 3d3d 5b28 5d3d 3d7c e83d

network.4.weight f4 [64, 128]
0.06240083 -0.09332299 0.010314764 0.041620836 0.046022844 0.0053119482 0.039968338 0.0006121821
-0.03948932 0.032092713 -0.070373304 -0.0306036 0.06657371 0.07849668 -0.12448119 -0.09616842
-0.07262862 -0.10217166 0.013229643 0.059124038 0.084969655 -0.06655993 0.037589245 0.03841531
0.061214823 0.008160643 0.089613825 -0.070252545 -0.030410776 0.046477288 0.025323162 0.056609403
0.02010039 -0.087378345 0.07189701 0.021554947 0.048944116 -0.06684422 -0.045480445 0.058149137
-0.028561493 -0.07051154 -0.030418016 -0.006817559 -0.09776427 -0.004412188 0.0028724466 -0.01730525
-0.041228484 0.012156588 0.024559474 0.062941216 0.010446612 -0.002297304 -0.07064514 0.09239049
-0.040849056 -0.09913833 -0.027726704 0.07168889 0.03652551 0.062152654 -0.018100338 0.05430253
0.01948872 0.066553704 -0.018617319 0.062450416 0.00896248 0.01873834 0.047644548 -0.0646056
-0.036689118 -0.08480659 -0.009907911 -0.009556214 0.02514509 0.007053265 -0.09141935 -0.057819832
0.060358617 -0.051180717 0.030234886 0.05634244 -0.029787969 -0.10498761 -0.055100344 -0.03045945
0.0046469164 -0.0013207336 0.055488534 0.05337768 -0.016301818 -0.07699619 -0.04009957 -0.10061174
-0.0006523044 -0.005349283 0.027587172 0.030154565 0.073840514 -0.036166716 0.029024655 -0.0014377335
0.0349154 -0.08895721 0.02795571 -0.06485392 0.094474405 0.098243274 -0.04755699 0.069914035
-0.07511455 0.04435993 -0.03944621 -0.045477137 0.02926101 -0.09995253 0.06790679 0.06584726
-0.018625015 -0.0017584007 0.0015608082 0.064798735 -0.05469543 0.075733535 -0.04936184 0.09984359
0.034281164 -0.024808576 -0.019718528 0.014702841 0.057051927 -0.03944559 0.0045689 -0.07354568
-0.07473473 0.041675843 -0.037829112 0.03279083 -0.016535036 0.07681778 0.0604929 0.0066113155
0.019621741 0.08680275 -0.030442195 -0.04030995 0.036689397 0.009214766 -0.08888916 -0.109309204
-0.042873707 0.10714353 0.00032112908 0.027802138 -0.11533343 0.035984907 2.8084387e-06 0.037672378
-0.10999991 0.02155811 -0.115325145 -0.018534595 0.0154748345 -0.040630788 0.046981417 0.0044876235
0.031007143 0.029784946 0.054441024 -0.08869904 0.043829575 0.027780311 -0.00083725905 -0.10190463
0.040915944 -0.0011877037 -0.020970209 0.0423466 -0.073445946 -0.056955393 0.02056332 -0.038467634
-0.0059223385 0.0726978 0.087271295 -0.09788241 0.016140014 -0.021919481 0.043851633 -0.050634667
-0.054472044 -0.08110926 0.037072502 -0.05264918 -0.022101589 -0.048464045 -0.019059148 0.043163475
-0.022079755 0.031783067 0.0056331586 0.0010557286 0.017270427 0.02971606 0.016404778 -0.07351191
0.010052203 0.091710344 0.060443632 -0.031791635 0.017153779 0.014279166 -0.05007403 -0.099198475
-0.096497215 0.020376647 0.034480903 -0.08800697 -0.05901353 0.057292406 -0.023049023 0.006447799
0.049117338 -0.041028272 -0.015240188 0.027962847 0.034868695 -0.023290496 -0.041720092 -0.00075083465
-0.04045204 0.07280596 0.04921805 0.1314828 0.027631424 -0.009201478 -0.04273946 -0.06896072
0.05091655 0.06812095 -0.032600068 -0.10760826 -0.043530628 0.038399678 -0.1055411 0.059818614
0.016872814 0.031766247 0.039586198 -0.053691816 0.038566303 -0.0035905696 0.0077703837 0.042847786
00000000: 0398 7f3d 2020 bfbd 42ff 283c 9c7a 2a3d
00000010: 7382 3c3d da0f ae3b d7b5 233d d87a 203a
00000020: 8ebf 21bd a673 033d e11f 90bd 67b4 fabc
00000030: cc57 883d dec2 a03d ffef febd f3f3 c4bd
00000040: 50be 94bd 603f d1bd 25c1 583c 0c2c 723d
00000050: 9204 ae3d 9350 88bd 2ef7 193d 5f59 1d3d
00000060: 65bc 7a3d 38b4 053c 7487 b73d 91e0 8fbd
00000070: 0520 f9bc f85e 3e3d 8572 cf3c 43df 673d
00000080: 93a9 a43c 6bf3 b2bd bd3e 933d 0094 b03c
00000090: a079 483d 9fe5 88bd b449 3abd ca2d 6e3d
000000a0: cbf9 e9bc 5b68 90bd 342f f9bc d465 dfbb
000000b0: a238 c8bd 1e94 90bb a83f 3c3b bdc3 8dbc
000000c0: 33df 28bd 6d2c 473c f330 c93c 53e7 803d
000000d0: 4428 2b3c 5e8e 16bb 66ae 90bd 3a37 bd3d
000000e0: 5751 27bd 0909 cbbd 1d23 e3bc a0d1 923d
000000f0: c69b 153d c893 7e3d 2947 94bc 546c 5e3d
00000100: cfa6 9f3c 4f4d 883d 5983 98bc 02cc 7f3d
00000110: 5ed7 123c 2681 993c ee26 433d f14f 84bd
00000120: 5447 16bd 14af adbd ca54 22bc ab91 1cbc
00000130: 13fd cd3c 131f e73b 113a bbbd 7dd4 6cbd
00000140: 993a 773d dfa2 51bd 27af f73c 55c7 663d
00000150: e605 f4bc be03 d7bd e6b0 61bd 1986 f9bc
00000160: 2945 983b 771c adba f247 633d 8ea2 5a3d
00000170: 648b 85bc 2eb0 9dbd 723f 24bd 870d cebd
00000180: 68ff 2aba 0a49 afbb 7efe e13c b506 f73c
00000190: b239 973d 8d23 14bd 1dc5 ed3c 5572 bcba
000001a0: 7303 0f3d 332f b6bd 6003 e53c 22d2 84bd
000001b0: cc7b c13d c533 c93d 1ecb 42bd 172f 8f3d
000001c0: a8d5 99bd c2b2 353d 5992 21bd 3c46 3abd
000001d0: c9b4 ef3c e9b3 ccbd b712 8b3d eeda 863d
000001e0: 7d93 98bc 237a e6ba 0894 cc3a 33b5 843d
000001f0: 5108 60bd 2f1a 9b3d a42f 4abd cc7a cc3d
00000200: 686a 0c3d 5b3b cbbc c088 a1bc 2fe4 703c
00000210: 48af 693d b391 21bd b6b6 953b 1e9f 96bd
00000220: 860e 99bd 4ab4 2a3d b3f2 1abd ad4f 063d
00000230: 7c74 87bc a452 9d3d 67c7 773d bca3 d83b
00000240: c6bd a03c a4c5 b13d e961 f9bc 0c1c 25bd
00000250: 9f47 163d 88f9 163c 850b b6bd 81dd dfbd
00000260: 579c 2fbd 116e db3d 375d a839 4fc1 e33c
00000270: ef33 ecbd e964 133d 9c78 3c36 5a4e 1a3d
00000280: a247 e1bd a29a b03c 972f ecbd ddd5 97bc
00000290: 298a 7d3c 786c 26bd 966f 403d ea0c 933b
000002a0: b102 fe3c 8fff f33c 8dfd 5e3d d8a7 b5bd
000002b0: a486 333d 8993 e33c 817b 5bba 60b3 d0bd
000002c0: 7a97 273d b9ac 9bba b7c9 abbc a173 2d3d
000002d0: d46a 96bd 0f4a 69bd 6874 a83c 3d90 1dbd
000002e0: 2d10 c2bb 96e2 943d 4bbb b23d 9376 c8bd
000002f0: 1038 843c 7c90 b3bc c59d 333d 4c66 4fbd
00000300: 141e 5fbd 9d1c a6bd 56d9 173d aba6 57bd
00000310: 640e b5bc 3c82 46bd ee21 9cbc 2fcc 303d
00000320: 9ae0 b4bc f62e 023d 5c96 b83b 6060 8a3a
00000330: b67a 8d3c 186f f33c 5063 863c 6a8d 96bd
00000340: ffb1 243c a2d2 bb3d be93 773d f237 02bd
00000350: 1586 8c3c 2af3 693c 6d1a 4dbd 9228 cbbd
00000360: 55a0 c5bd edec a63c d93b 0d3d 003d b4bd
00000370: 2cb8 71bd 71ab 6a3d 4ed1 bcbc 0f48 d33b
00000380: 432f 493d 430d 28bd fbb1 79bc 5712 e53c
00000390: 7ad2 0e3d b6cb bebc b0e2 2abd a9d3 44ba
000003a0: 0ab1 25bd 4b1b 953d de98 493d 6da3 063e
000003b0: 4c5b e23c ccc1 16bc 920f 2fbd 473b 8dbd
000003c0: df8d 503d ff82 8b3d a687 05bd b861 dcbd
000003d0: 2c4d 32bd fb48 1d3d ef25 d8bd 5d04 753d
000003e0: db38 8a3c 531d 023d 2325 223d f3eb 5bbd
000003f0: b3f7 1d3d c34f 6bbb b49e fe3b 2981 2f3d

network.4.bias f4 [64]
0.18147177 -0.043941073 6.196347e-05 -0.04705983 0.17438905 0.07593921 0.034841094 0.09902851
0.20184493 0.06931745 0.2140911 0.16835113 0.03384191 0.1620847 0.17676613 0.06326144
-0.067091465 0.024680508 0.015151265 -0.015198152 0.20930204 0.17766799 0.047095574 0.20703924
0.09549934 0.1221059 0.04282806 0.10107294 0.04793465 0.13433923 0.08955064 0.012744618
0.00784392 0.1418554 0.0192836 -0.036365584 -0.086944856 0.04327173 0.14567095 0.06774239
0.16785255 0.07706338 0.015317698 -0.011983981 -0.018439963 0.03677149 -0.0067085824 0.08937185
0.024644481 0.0670256 0.035892796 -0.020149184 0.031818658 0.05011993 0.18620287 0.06148536
0.17430536 0.0037942796 0.029178767 -0.045538142 -0.09111369 0.023526447 0.033938047 0.0022275953
00000000: bcd3 393e 8efb 33bd 62f2 8138 cfc1 40bd
00000010: 0b93 323e 0486 9b3d 89b5 0e3d 76cf ca3d
00000020: 70b0 4e3e 4ff6 8d3d b33a 5b3e 3d64 2c3e
00000030: d19d 0a3d 88f9 253e 2e02 353e 378f 813d
00000040: 4067 89bd c72e ca3c 033d 783c ab01 79bc
00000050: 4653 563e 99ee 353e 4ae7 403d 1802 543e
00000060: 2895 c33d a812 fa3d 7a6c 2f3d 54ff ce3d
00000070: 2057 443d 3990 093e 5366 b73d cdce 503c
00000080: c983 003c 8b42 113e a4f8 9d3c 14f4 14bd
00000090: 2510 b2bd b33d 313d c42a 153e 86bc 8a3d
000000a0: 8ae1 2b3e 68d3 9d3d 15f7 7a3c 7658 44bc
000000b0: 680f 97bc b49d 163d abd3 dbbb 9708 b73d
000000c0: 39e3 c93c b844 893d 5304 133d e70f a5bc
000000d0: 4854 023d 8e4a 4d3d f7ab 3e3e 13d8 7b3d
000000e0: 1b7d 323e 73a9 783b 4f08 ef3c 3486 3abd
000000f0: d099 babd 89ba c03c 9f02 0b3d d9fc 113b

network.6.weight f4 [64]
0.90378284 0.9793098 1.0646604 0.89382637 0.904862 1.006788 0.98452604 1.017798
1.0116518 1.0366334 0.88718104 0.9666807 0.9555152 0.93319905 0.8991144 0.9739723
0.9013919 1.064655 0.947198 1.0239913 0.9524428 1.0007374 0.9449776 0.8969145
0.8656947 1.0554013 0.8964355 0.968747 0.89725786 0.8792439 0.8789551 1.0642554
0.8849153 1.0566565 1.0106654 0.9617812 0.98272866 0.89694095 0.9761656 0.9173887
0.89021873 0.90689737 0.9064246 0.96800834 0.9744906 0.99133694 0.9305642 1.0350351
0.985358 1.0635736 0.8816411 1.0430949 0.9365934 1.0511341 0.84162295 0.9801004
0.87283564 1.0503974 0.90197223 1.000346 1.0105727 1.0149387 1.0091183 1.0265167
00000000: 505e 673f 0cb4 7a3f cb46 883f ced1 643f
00000010: 09a5 673f 6ede 803f e609 7c3f 3447 823f
00000020: ce7d 813f 67b0 843f 4c1e 633f 6378 773f
00000030: a59c 743f 22e6 6e3f 5c2c 663f 4056 793f
00000040: 9fc1 663f 9d46 883f 917b 723f 2612 833f
00000050: 4bd3 733f 2a18 803f 0dea 713f 309c 653f
00000060: 2b9e 5d3f 6417 873f cc7c 653f ceff 773f
00000070: b1b2 653f 2116 613f 3403 613f 8539 883f
00000080: cf89 623f 8540 873f 7c5d 813f 4b37 763f
00000090: 1b94 7b3f ec9d 653f fde5 793f fcd9 6a3f
000000a0: 60e5 633f 6d2a 683f 710b 683f 65cf 773f
000000b0: 3778 793f 42c8 7d3f 7539 6e3f 087c 843f
000000c0: 6c40 7c3f 2e23 883f 3bb3 613f 2284 853f
000000d0: 96c4 6f3f 908b 863f 9a74 573f dce7 7a3f
000000e0: 2872 5f3f 6c73 863f a7e7 663f 560b 803f
000000f0: 725a 813f 83e9 813f ca2a 813f e664 833f

network.6.bias f4 [64]
0.10402288 -0.05803312 -0.061023876 0.16345556 0.19023731 -0.041544028 0.12609975 0.040279225
0.15843382 -0.013775758 0.27142718 0.100484855 0.12073906 0.15255061 0.13166085 0.14376283
0.027655544 0.0001649941 0.018865282 -0.035079643 0.13644871 0.15943319 -0.033272825 0.15840894
0.15993598 -0.061980553 0.12501785 0.022976957 0.13561969 0.18262659 0.1308282 -0.05209978
0.14904407 -0.0406732 -0.014555122 -0.1032595 -0.10603393 0.105079114 0.08969794 -0.09668656
0.1561335 0.07451423 0.13502333 0.0526438 -0.093967944 -0.044934273 0.05003927 -0.012213757
-0.05694202 -0.06710535 0.15217337 -0.07773768 0.13875903 -0.072049566 0.18529181 -0.049059156
0.14481118 -0.027002666 0.11553136 -0.032115553 -0.08865821 -0.060930617 -0.12533757 -0.080269374
00000000: f309 d53d 23b4 6dbd 2cf4 79bd e560 273e
00000010: 92cd 423e 122a 2abd 4b20 013e d4fb 243d
00000020: 7a3c 223e b8b3 61bc 81f8 8a3e 01cb cd3d
00000030: 0a46 f73d 3a36 1c3e 1ad2 063e 9036 133e
00000040: e18d e23c 4402 2d39 5d8b 9a3c acaf 0fbd
00000050: 36b9 0b3e 7442 233e 1649 08bd f435 223e
00000060: 42c6 233e 52df 7dbd ae04 003e 2c3a bc3c
00000070: e3df 0a3e 7702 3b3e d4f7 053e 9466 55bd
00000080: 029f 183e f198 26bd 9b78 6ebc b779 d3bd
00000090: 5128 d9bd b833 d73d 8eb3 b73d 9a03 c6bd
000000a0: 76e1 1f3e eb9a 983d 8e43 0a3e 06a1 573d
000000b0: 4472 c0bd 000d 38bd faf5 4c3d 361c 48bc
000000c0: 093c 69bd 886e 89bd 56d3 1b3e ef34 9fbd
000000d0: d916 0e3e b98e 93bd 23bd 3d3e 41f2 48bd
000000e0: 6249 143e b234 ddbc b59b ec3d 998b 03bd
000000f0: 7092 b5bd 6292 79bd 7e58 00be 4564 a4bd

network.6.running_mean f4 [64]
0.9219862 0.76746005 1.3198122 0.35620305 0.99480504 0.986606 0.7932665 1.3294446
1.1280566 1.2056352 0.79713655 1.0054172 0.81043243 0.82552856 0.87287384 0.9436857
0.49281535 1.1397567 0.8183865 1.0448983 0.9812639 0.96718574 1.0313121 0.90999186
0.662691 1.0617442 0.6861463 0.8791758 0.5481149 0.64982307 0.704381 1.0425539
0.56745684 1.2501346 1.0275202 0.97820425 0.93162906 0.72685736 0.8600586 1.1327803
0.95152307 0.5821004 0.83575207 0.81776524 0.84878993 1.1295797 0.75524735 1.1016704
0.91844785 0.96068054 0.78942853 0.9737916 0.8184348 1.0770582 0.894333 1.0807163
0.80612504 1.1395062 0.75445724 0.9139297 0.81639063 0.88861525 1.0857825 1.1104833
00000000: 4a07 6c3f 4378 443f 9bef a83f 3f60 b63e
00000010: 8bab 7e3f 3692 7c3f 8313 4b3f 3e2b aa3f
00000020: 2964 903f 4152 9a3f 2411 4c3f 83b1 803f
00000030: 8078 4f3f d755 533f a974 5f3f 6395 713f
00000040: 4b52 fc3e 8ce3 913f c781 513f 3abf 853f
00000050: 1c34 7b3f 7c99 773f 0902 843f 3af5 683f
00000060: 1ea6 293f 3ce7 873f 49a7 2f3f aa11 613f
00000070: 4251 0c3f ce5a 263f 5052 343f 6872 853f
00000080: da44 113f 6904 a03f c885 833f 986b 7a3f
00000090: 3e7f 6e3f 5313 3a3f cd2c 5c3f f2fe 903f
000000a0: 0497 733f 8804 153f d9f3 553f 1059 513f
000000b0: 4c4a 593f 1196 903f e457 413f 8903 8d3f
000000c0: 661f 6b3f 29ef 753f fd17 4a3f 684a 793f
000000d0: f184 513f 0bdd 893f 02f3 643f e954 8a3f
000000e0: 365e 4e3f 57db 913f 1c24 413f 4cf7 693f
000000f0: fafe 503f 4a7c 633f ecfa 8a3f 5124 8e3f

network.6.running_var f4 [64]
0.79065853 1.0046023 2.795754 0.24735372 1.0099621 1.5827308 0.65686405 2.815975
1.0401073 2.315621 0.7048959 0.9012691 0.90199816 0.6809966 0.8063118 1.0122575
0.4377651 2.070953 1.1068214 1.7325642 0.82295555 0.95690423 1.7427502 0.95762646
0.5769968 1.807186 0.58920634 0.6698888 0.4544999 0.7049346 0.5496631 1.7768134
0.44437665 2.4880974 1.7425861 1.6067035 1.4645323 0.6321061 0.6878895 1.13822
0.8802622 0.6729649 0.77062714 0.6711696 1.2134545 2.0883312 1.0128744 1.9171578
0.77870685 1.4870774 0.6971294 1.5921556 0.6941077 1.860672 0.81759936 1.8742685
0.6523379 2.0648012 0.6291138 1.3870522 1.1084857 1.2932402 1.0302902 2.0557973
00000000: 9968 4a3f cf96 803f a2ed 3240 4b4a 7d3e
00000010: 7046 813f ec96 ca3f 3e28 283f ef38 3440
00000020: 3c22 853f 2233 1440 0f74 343f 92b9 663f
00000030: 5ae9 663f cb55 2e3f 736a 4e3f a791 813f
00000040: bf22 e03e 7e8a 0440 53ac 8d3f aac4 dd3f
00000050: 37ad 523f adf7 743f 7012 df3f 0227 753f
00000060: 10b6 133f df51 e73f 3ad6 163f d57d 2b3f
00000070: 36b4 e83e 9876 343f b9b6 0c3f 9f6e e33f
00000080: 5685 e33e fd3c 1f40 100d df3f 76a8 cd3f
00000090: cb75 bb3f b5d1 213f 8719 303f 31b1 913f
000000a0: dd58 613f 6d47 2c3f d247 453f c5d1 2b3f
000000b0: 7a52 9b3f 38a7 0540 dea5 813f 6d65 f53f
000000c0: 5559 473f 8d58 be3f 1377 323f c1cb cb3f
000000d0: 0bb1 313f 802a ee3f 314e 513f 08e8 ef3f
000000e0: 9eff 263f b425 0440 9a0d 213f ed8a b13f
000000f0: dce2 8d3f e588 a53f 8de0 833f 2f92 0340

network.8.weight f4 [32, 64]
-0.04868059 -0.035693783 -0.13822272 0.020420596 0.053685084 -0.12746158 0.014338711 -0.0238257
0.09739247 -0.065036505 0.015885627 -0.0124228895 -0.008958796 -0.0041308654 0.016481837 -0.024288574
-0.06882598 -0.15546533 0.03071396 0.021885777 0.09992191 -0.046636585 -0.14090201 0.0300853
0.046637025 -0.13637559 0.024709722 -0.043319695 0.034232628 0.059739493 -0.0040073334 -0.044969108
-0.005821323 -0.13266589 -0.06270331 0.010784087 -0.01547477 0.054481674 -0.00058604 0.017591747
-0.02924979 0.017310077 0.03971045 0.023120191 -0.10021598 -0.13515133 -0.06057493 0.047351703
0.038400352 -0.038191747 0.009932244 -0.056697097 0.05061197 -0.15490459 -0.044490516 -0.1271797
-0.020228423 -0.04737226 0.06367875 -0.14787886 -0.02297117 0.016444292 -0.00026574096 -0.0198046
-0.12637568 -0.038821366 -0.00597484 -0.022271512 -0.015386807 0.063927606 -0.01327463 0.022394435
-0.123319365 0.007245095 0.026529754 0.02074386 -0.008672105 -0.008106556 -0.06885568 -0.15908745
-0.060573112 0.05905413 0.024692167 0.00017059606 -0.15961954 -0.07192229 0.029068392 -0.105779454
0.0067668906 0.0036750704 0.0054397024 -0.14338693 -0.08140788 -0.10926374 -0.15119016 -0.04754452
-0.056548845 0.07804695 0.08184375 -0.012225692 -0.009353391 0.051093772 -0.023054628 -0.011946389
-0.12741983 -0.005313706 -0.124061555 -0.09647132 0.02792488 0.009930415 -0.0033173256 0.08631461
-0.14836542 0.0065798303 0.043086275 -0.029968897 -0.094103314 0.015233827 -0.011153475 0.07060551
0.0039543808 -0.015352212 -0.08126327 0.017825311 0.062039703 0.0231847 -0.14115144 -0.012283268
0.01226446 -0.06482234 -0.12072799 -0.042035766 -0.01110836 -0.14397804 0.036306195 0.030281946
0.039761804 -0.07952054 -0.027890908 0.030040596 0.03860027 -0.0524032 -0.009963691 0.034894403
-0.022143506 0.028330121 -0.04899029 -0.08305288 0.075658664 0.022941396 -0.11214474 0.030553898
-0.007769293 0.007789539 -0.0073273834 0.0154589 0.029738264 0.032460544 0.00845793 -0.04313003
0.008237696 -0.10248418 -0.11203222 -0.102443144 -0.03568008 -0.0480633 0.038649622 0.036134493
0.002891585 -0.030174922 0.024865383 -0.030752262 -0.045144923 -0.12216854 0.055555288 -0.053085294
-0.026238317 -0.06551002 0.00039913232 -0.12453767 -0.017286686 -0.16865784 -0.04422393 0.032565605
0.049110226 -0.059983842 0.02401243 -0.041173145 -0.11668032 -0.075018294 0.03683139 -0.14605433
-0.13470042 0.025722297 0.06750198 0.04352576 0.047904585 -0.028098166 -0.09190194 0.06299452
-0.15147866 0.117729165 -0.0017527424 -0.17301778 -0.14273869 -0.067792006 0.037290607 -0.1128816
-0.06279115 0.12961558 0.03616671 0.11600064 0.0016933174 -0.076346114 0.01918992 0.038024623
0.06811484 0.08303288 0.0015667059 -0.06380011 0.03822015 0.03941769 -0.07398943 0.059476774
-0.018677467 -0.04005374 0.0041462155 -0.06607545 0.00553077 -0.119579844 -0.022187544 -0.11869437
-0.10096699 0.007213524 -0.06525837 -0.096407086 -0.03579214 0.04062761 0.07277261 0.080498196
-0.12618858 0.061147016 -0.061684825 -0.05926064 -0.040921185 0.08531306 0.04323551 -0.02307502
-0.0586903 0.029468954 -0.033762347 0.04915027 -0.05235326 0.024875833 -0.18199444 0.007341415
00000000: 4c65 47bd a533 12bd 428a 0dbe 1849 a73c
00000010: e4e4 5b3d 4a85 02be eaec 6a3c 1d2e c3bc
00000020: b475 c73d dc31 85bd 9322 823c 6089 4bbc
00000030: eac7 12bc 365c 87bb eb04 873c d5f8 c6bc
00000040: a3f4 8cbd 4e32 1fbe d89b fb3c cd49 b33c
00000050: dca3 cc3d 0106 3fbd 9e48 10be 7275 f63c
00000060: 7706 3f3d 0ba6 0bbe 0b6c ca3c fe6f 31bd
00000070: 8337 0c3d 66b1 743d f34f 83bb 8731 38bd
00000080: ccc0 bebb 91d9 07be 986a 80bd bdaf 303c
00000090: e489 7dbc 2d28 5f3d 7ba0 19ba 911c 903c
000000a0: 419d efbc ddcd 8d3c 6da7 223d 8e66 bd3c
000000b0: 093e cdbd 1c65 0abe 6b1d 78bd dcf3 413d
000000c0: b049 1d3d f36e 1cbd daba 223c 373b 68bd
000000d0: 7f4e 4f3d 4f9f 1ebe b03b 36bd 653b 02be
000000e0: 14b6 a5bc 6a09 42bd 016a 823d 8e6d 17be
000000f0: 092e bcbc 2eb6 863c 2653 8bb9 423d a2bc
00000100: a068 01be 2703 1fbd 97c8 c3bb bf72 b6bc
00000110: f218 7cbc 7aec 823d d57d 59bc 8974 b73c
00000120: dd8e fcbd 4368 ed3b ed54 d93c 07ef a93c
00000130: 7215 0ebc 5cd1 04bc 3504 8dbd d2e7 22be
00000140: 831b 78bd bee2 713d 3a47 ca3c 08e2 3239
00000150: 4e73 23be fe4b 93bd d620 ee3c e6a2 d8bd
00000160: cbbc dd3b 73d9 703b 883f b23b 06d4 12be
00000170: 2db9 a6bd abc5 dfbd 98d1 1abe 0bbe 42bd
00000180: c39f 67bd 14d7 9f3d b29d a73d 454e 48bc
00000190: f73e 19bc b447 513d 0fdd bcbc caba 43bc
000001a0: 587a 02be 991e aebb fc13 febd c192 c5bd
000001b0: b8c2 e43c 2eb3 223c 7d67 59bb b7c5 b03d
000001c0: 1bed 17be 9e9b d73b 3c7b 303d 5581 f5bc
000001d0: 3db9 c0bd 4d97 793c 11bd 36bc 9f99 903d
000001e0: c093 813b d887 7bbc 5b6d a6bd 6306 923c
000001f0: 581d 7e3d d7ed bd3c 018a 10be c33f 49bc
00000200: e0f0 483c 93c1 84bd 3d40 f7bd b22d 2cbd
00000210: d7ff 35bc fb6e 13be ceb5 143d d811 f83c
00000220: 46dd 223d aadb a2bd 797b e4bc b217 f63c
00000230: 511b 1e3d bda4 56bd c03e 23bc 6fed 0e3d
00000240: 4c66 b5bc 9214 e83c 0baa 48bd a117 aabd
00000250: eef2 9a3d 98ef bb3c 24ac e5bd 2b4c fa3c
00000260: 8e95 febb 643f ff3b 8c1a f0bb 5347 7d3c
00000270: a99d f33c 59f5 043d 2193 0a3c 1da9 30bd
00000280: 67f7 063c 3ae3 d1bd 2671 e5bd b6cd d1bd
00000290: 4725 12bd 06de 44bd 114f 1e3d c301 143d
000002a0: bf80 3d3b 6631 f7bc 7db2 cb3c 2bec fbbc
000002b0: e2e9 38bd 8033 fabd f18d 633d f76f 59bd
000002c0: bdf1 d6bc 1e2a 86bd a242 d139 9b0d ffbd
000002d0: cf9c 8dbc a4b4 2cbe 2724 35bd 8363 053d
000002e0: ce27 493d 9eb1 75bd b7b5 c43c 2ca5 28bd
000002f0: 17f6 eebd 31a3 99bd 83dc 163d 448f 15be
00000300: e8ee 09be 91b7 d23c 7a3e 8a3d 1148 323d
00000310: 9937 443d 202e e6bc 1637 bcbd 4503 813d
00000320: 391d 1bbe fd1b f13d 47bc e5ba 932b 31be
00000330: 172a 12be 89d6 8abd 09be 183d 782e e7bd
00000340: a598 80bd f2b9 043e 8b23 143d be91 ed3d
00000350: 4ef2 dd3a 5a5b 9cbd 2e34 9d3c b5bf 1b3d
00000360: cb7f 8b3d 250d aa3d ed59 cd3a a2a9 82bd
00000370: bb8c 1c3d 7274 213d c587 97bd eb9d 733d
00000380: 7d01 99bc 640f 24bd fadc 873b 9152 87bd
00000390: 763b b53b 47e6 f4bd a7c2 b5bc 0916 f3bd
000003a0: c8c7 cebd 6d5f ec3b 2ea6 85bd 1471 c5bd
000003b0: c79a 12bd 2369 263d ce09 953d 3ddc a43d
000003c0: 9437 01be 4b75 7a3d 3aa9 7cbd 49bb 72bd
000003d0: f99c 27bd 9db8 ae3d b817 313d d307 bdbc
000003e0: 3d65 70bd e068 f13c 634a 0abd cb51 493d
000003f0: 5f70 56bd 67c8 cb3c c05c 3abe 4190 f03b

network.8.bias f4 [32]
0.2663379 0.20534489 0.13824882 0.07167248 0.29351285 0.2635299 0.22579843 0.107108064
0.11314928 0.18988912 0.08431951 0.77324283 0.23298855 0.20496258 0.3721988 0.18873557
0.34734076 0.46208566 0.32511884 0.3438095 0.64257103 0.2773135 0.21688978 0.7363725
0.60516757 0.08742328 0.647664 0.27726263 0.07007068 0.33704266 0.27949283 0.19710906
00000000: 715d 883e ee45 523e 1991 0d3e 05c9 923d
00000010: 5147 963e 64ed 863e b437 673e 795b db3d
00000020: cfba e73d 4b72 423e b5af ac3d 3ef3 453f
00000030: 8d94 6e3e b6e1 513e d790 be3e e643 413e
00000040: a6d6 b13e 7e96 ec3e fa75 a63e cc07 b03e
00000050: 897f 243f 09fc 8d3e 5b18 5e3e e882 3c3f
00000060: 43ec 1a3f fa0a b33d 4fcd 253f 5ef5 8d3e
00000070: 3781 8f3d db90 ac3e af19 8f3e f5d6 493e

network.10.weight f4 [32]
1.5036544 1.4764686 1.2566153 1.3338668 1.5540355 1.3773288 1.590225 1.2641459
1.2916874 1.2811695 1.361117 2.441242 1.5459431 1.2902285 1.8626193 1.7216971
1.6283851 1.5611179 1.3025104 1.5230658 2.1311135 1.2444612 1.3144023 2.102516
2.0336044 1.3559508 2.1492715 1.2555408 1.2747129 1.4994167 1.3510244 1.4420714
00000000: bf77 c03f ecfc bc3f c5d8 a03f 26bc aa3f
00000010: a3ea c63f 4f4c b03f 7e8c cb3f 88cf a13f
00000020: 0356 a53f 5dfd a33f 1539 ae3f 4f3d 1c40
00000030: 77e1 c53f 3526 a53f 4f6a ee3f 9260 dc3f
00000040: ec6e d03f b6d2 c73f a9b8 a63f d2f3 c23f
00000050: 2a64 0840 814a 9f3f 563e a83f 9f8f 0640
00000060: 9326 0240 cc8f ad3f aa8d 0940 90b5 a03f
00000070: cb29 a33f e3ec bf3f 5eee ac3f cc95 b83f

network.10.bias f4 [32]
0.30021217 -0.31278935 0.2218141 -0.22754803 -0.37384662 0.2898237 -0.4114563 -0.20390423
0.22502095 0.21752894 0.27923846 0.7073856 0.3008881 -0.21730484 0.49184877 -0.4346129
0.47013468 0.39198428 0.23060961 0.2790394 0.710086 0.20927007 -0.21096885 0.69964796
0.5972453 0.24179757 0.6710835 0.21103202 -0.20164424 0.34942204 0.2355987 0.28116897
00000000: 69b5 993e ed25 a0be 3c23 633e 5a02 69be
00000010: d368 bfbe c663 943e 66aa d2be 45cc 50be
00000020: e46b 663e e8bf 5e3e 58f8 8e3e 3917 353f
00000030: 010e 9a3e 2985 5ebe 9ad3 fb3e 9585 debe
00000040: 7eb5 f03e 2ab2 c83e ed24 6c3e 41de 8e3e
00000050: 32c8 353f e54a 563e 3808 58be 211c 333f
00000060: 11e5 183f c899 773e 21cc 2b3f c718 583e
00000070: d47b 4ebe 72e7 b23e c940 713e 61f5 8f3e

network.10.running_mean f4 [32]
1.2933187 1.0546114 1.2002274 1.1438133 1.1792634 1.3551686 1.192703 0.9784974
1.3913409 1.2014596 1.4073505 1.1113259 1.5847013 1.1547817 1.3827271 0.9820371
1.4936427 1.226793 1.1086651 1.449854 1.3079965 1.2700455 1.0830139 0.96133596
1.2931204 1.3850164 1.2207043 1.3310053 1.1170143 1.1896908 1.2878882 1.5139424
00000000: 788b a53f 82fd 863f 0da1 993f 7968 923f
00000010: 1af2 963f 2a76 ad3f 7eaa 983f ce7e 7a3f
00000020: 7517 b23f 6ec9 993f 1024 b43f ed3f 8e3f
00000030: 7ed7 ca3f e3cf 933f 34fd b03f c966 7b3f
00000040: af2f bf3f 8e07 9d3f bde8 8d3f d194 b93f
00000050: 6e6c a73f da90 a23f 33a0 8a3f 1d1a 763f
00000060: f884 a53f 3848 b13f 0a40 9c3f 625e aa3f
00000070: 53fa 8e3f ca47 983f 85d9 a43f ddc8 c13f

network.10.running_var f4 [32]
1.2211515 1.7066793 1.0583452 2.0331342 2.1256075 1.3440782 2.175899 1.4868451
1.4070948 1.059406 1.4317683 0.8617089 1.8311257 2.0840633 1.3640436 1.483854
1.5891552 1.0847732 0.9035164 1.5443605 1.2051011 1.1782495 1.8255596 0.6452419
1.1828542 1.4106933 1.0558368 1.3091406 1.9437139 1.0189139 1.2134722 1.6750793
00000000: b14e 9c3f 7874 da3f db77 873f df1e 0240
00000010: f409 0840 c10a ac3f ee41 0b40 f150 be3f
00000020: af1b b43f 9e9a 873f 2f44 b73f f498 5c3f
00000030: 5462 ea3f 4b61 0540 fb98 ae3f eeee bd3f
00000040: 7069 cb3f d9d9 8a3f da4c 673f 9bad c53f
00000050: c140 9a3f e1d0 963f f0ab e93f 932e 253f
00000060: c467 973f 9991 b43f a925 873f eb91 a73f
00000070: 9ecb f83f c56b 823f 0f53 9b3f 0069 d63f

network.12.weight f4 [1, 32]
-0.3891528 0.3130292 -0.34107786 0.33809158 0.28565475 -0.30749467 0.28048092 0.36656877
-0.37880358 -0.40777877 -0.29404053 -0.39775762 -0.4136084 0.35323462 -0.39419058 0.35160083
-0.27083904 -0.2966646 -0.3653898 -0.44769856 -0.42414933 -0.3458223 0.39190447 -0.43614662
-0.44380787 -0.3949104 -0.40339705 -0.38989297 0.3633735 -0.29426605 -0.40911564 -0.362534
00000000: 093f c7be 5d45 a03e c2a1 aebe 571a ad3e
00000010: 5741 923e f16f 9dbe 329b 8f3e e7ae bb3e
00000020: 8bf2 c1be 61c8 d0be 7b8c 96be e3a6 cbbe
00000030: 7bc4 d3be 2bdb b43e 59d3 c9be 0605 b43e
00000040: 6aab 8abe 6ce4 97be 5f14 bbbe bf38 e5be
00000050: 1a2a d9be 9f0f b1be b4a7 c83e 9c4e dfbe
00000060: c93a e3be b231 cabe 0f8a cebe 0da0 c7be
00000070: 170c ba3e 0aaa 96be 9b77 d1be 0e9e b9be
