ml-models/trained_models/ltv_predictor.pth (torch, 212876 bytes, 19 tensors)

network.0.weight f4 [256, 29]
000000 24 fa c3 bd 61 e6 17 be 3b a1 38 be 2e d0 3b be
       -0.09569195 -0.14833976 -0.18030255 -0.18341133
000010 df c6 99 bd df cd 2b bc 2c 12 56 bb 75 f9 ff 3c
       -0.07508635 -0.010486095 -0.003266464 0.03124688
000020 aa 86 1c 3d 25 97 c3 3d 92 7b 1a 3e 28 b1 1a bd
       0.038214363 0.09550313 0.15086201 -0.037766606
000030 65 68 2a 3e b8 8d 14 3e d6 4c 23 3e 3f ee ad bb
       0.16641386 0.14507186 0.1594728 -0.005307942
000040 60 42 86 bd 4f 5c 2a 3e 95 e4 62 3d f4 f9 82 bd
       -0.06555629 0.16636775 0.055393774 -0.06395331
000050 19 2f 86 3b 01 d5 57 3e 57 8d 4b be 10 9b 53 3d
       0.00409497 0.21077348 -0.19878136 0.05166155
000060 78 f4 87 bd 5f 2a 13 3d ee 5d a8 3d 9d 29 f1 3c
       -0.066384256 0.03592908 0.08221041 0.029438788
000070 39 c7 bc 3d 3a 9e c8 3d 14 1d 8d 3c 00 33 e2 bc
       0.09217686 0.09795804 0.01722578 -0.02761221
000080 9d 38 36 be 3c 58 d4 bd 4b b1 2a be 70 3c 82 3d
       -0.17795034 -0.10368392 -0.16669194 0.06359184
000090 4e 6b d6 bd 70 95 1e be 4c 96 aa 3c 97 c5 70 3d
       -0.104696855 -0.15486693 0.02082362 0.058782186
0000a0 4a 0e c9 3b 16 08 38 bd c3 f7 cd bd fb 80 3f be
       0.0061357366 -0.044929586 -0.100570224 -0.18701546
0000b0 e6 fe 26 3e a1 06 51 bd b4 8f a1 bd 02 d0 fe 3d
       0.16308174 -0.051031712 -0.07888737 0.12442018
0000c0 d9 b1 3c be 84 ee cc 3d 8a e7 37 be 34 3f fa bd
       -0.18427218 0.10006431 -0.17959419 -0.12219086
0000d0 9b e4 8f bd f3 0b ae bc e3 66 c6 bd 72 37 d2 bd
       -0.07026025 -0.021245932 -0.09687593 -0.102644816
0000e0 04 9a 96 3d eb 41 0f be a0 e9 0f bd 59 e5 d4 3c
       0.07353595 -0.1398999 -0.03513491 0.025988268
0000f0 cd 7d f5 3c b8 23 fb bd e9 80 62 be c1 13 9f 3d
       0.029967213 -0.12262672 -0.22119488 0.0776744
000100 6f fe 1f be af 0e 0a 3e 3c 52 1d be d5 17 1b 3e
       -0.15624402 0.13482164 -0.15363401 0.1514581
000110 73 e6 9b bd 82 92 93 3c 37 93 0c be f0 33 93 bd
       -0.07612314 0.018014196 -0.13728033 -0.07187641
000120 ca d4 db bd cd b4 20 be 66 47 e0 3c 0e f4 bb 3d
       -0.10733946 -0.1569397 0.027377795 0.09177409
000130 d2 cc 99 bd cf 70 7b 3d 4b 66 f0 3d 93 06 18 3d
       -0.075097695 0.06138688 0.11738261 0.037115645
000140 9f 52 c3 3b 25 67 b4 3d 81 fd ed 3d ed 58 af bd
       0.005960777 0.08808736 0.11620618 -0.08561883
000150 ef 9c 4f 3e ad 44 b3 bc 15 87 53 bc 40 5b a7 bd
       0.20274709 -0.021883333 -0.012910624 -0.081717014
000160 37 fb 49 bd 7c 36 35 3e 45 b9 5f 3c d3 00 1a 3d
       -0.049311843 0.17696565 0.013655012 0.037598442
000170 20 df e1 3c 2b 44 9b 3b 50 d4 6e 3d 97 09 ab bc
       0.027572215 0.004738351 0.058307946 -0.020878596
000180 46 03 25 3c ec 87 40 3d 1b d0 69 3c 75 3a 99 3e
       0.010071581 0.047004625 0.014270808 0.29927412
000190 c5 6d 8f 3c fe 6b 18 3e a3 99 1c 3c ea 89 a6 3c
       0.017508397 0.14884946 0.009558114 0.020329434
0001a0 d6 66 15 3e 07 ce c3 3d eb 38 af 3d 0c 3b 8e 3d
       0.1459001 0.09560781 0.08555778 0.06944856
0001b0 9a 8f 7f 3d 68 bb 93 3d 8a 38 c8 bd c6 c1 7c 3c
       0.06239281 0.07213479 -0.09776409 0.015427059
0001c0 c3 15 79 bb 7c 81 c8 bd 01 9b fb 3b 1e 3e d9 bd
       -0.0038007356 -0.09790322 0.00767839 -0.10607551
0001d0 c9 80 3a be ed a8 9d 3d 23 be 20 3e 1d 2f 02 3c
       -0.1821319 0.07698236 0.15697531 0.007945803
0001e0 21 8e bf 3d c7 e7 c8 3c 36 97 2a bd ac 45 c9 3c
       0.09353281 0.024524583 -0.041648112 0.024569355
0001f0 d9 76 bf bc ad 59 21 be a1 1d 16 3e 29 71 6c 3c
       -0.0233721 -0.15756865 0.1465974 0.014431276
000200 1e 5d 67 be c3 bb c8 3d 45 62 bb bd da fb a9 3d
       -0.22594115 0.09801438 -0.09149603 0.0829999
000210 fe 77 fc 3d e3 eb 90 bc 13 43 d1 bd 8c 3d 1e 3d
       0.12327574 -0.017690605 -0.102178715 0.038632914
000220 e2 7f 05 bc 9e 5b 2a 3d d9 dd 33 3e d2 10 03 bb
       -0.008148165 0.04159128 0.17565097 -0.001999904
000230 de 41 77 bd 15 3f f1 bd 51 08 55 bd ce 3a c8 bd
       -0.06036555 -0.1177961 -0.052009884 -0.09776841
000240 2e 19 60 bc a2 a6 fa bd 04 e4 e2 bd ba 59 7a bd
       -0.013677878 -0.12238814 -0.11078647 -0.061120726
000250 95 13 29 3e 10 82 4e 3d f3 34 76 3d 9d 27 ad bd
       0.16511376 0.050417006 0.06010909 -0.08454821
000260 66 ba 22 3c df 9a 9f 3d 5a 91 37 3e b1 0f 25 3e
       0.009932136 0.07793211 0.17926541 0.16119267
000270 38 de 35 be 78 b8 86 3e 55 72 1d 3e a6 8f 36 be
       -0.17760551 0.26312613 0.15375645 -0.17828235
000280 f3 5d 22 3b 15 85 bb 3c f3 ed 84 bc 95 a0 e4 3c
       0.0024775236 0.022890607 -0.016226744 0.027908603
000290 90 41 14 3e 5f c0 eb 3c 5c 4b 25 3d 4b c4 bf bd
       0.14478135 0.028778253 0.04035507 -0.09363612
0002a0 6a a3 54 3e 87 65 30 3d 50 98 d6 3c c6 cb 7e 3d
       0.20765463 0.043065574 0.026195675 0.062206052
0002b0 7c 78 74 bc 64 e0 c0 3a 72 1b 45 bd 15 50 56 bd
       -0.014921304 0.0014715311 -0.048121877 -0.052322466
0002c0 51 b8 17 3c 09 72 d5 3d 44 93 1a 3e 73 92 be bc
       0.009260253 0.10422141 0.1509524 -0.023263192
0002d0 a2 05 17 3c 4b 41 89 bc d3 5e d8 3d b5 51 0b be
       0.009217652 -0.016754767 0.10564961 -0.13605388
0002e0 e0 0b ff 3c 31 ae 07 be b4 11 dd bd 6d bb 15 bc
       0.031133592 -0.13250042 -0.10794392 -0.009138924
0002f0 c7 3b 38 3e 50 3b f6 bd 61 57 59 3d 07 f4 10 3e
       0.17991553 -0.12023032 0.053061847 0.14155589
000300 e3 81 8f 3d 41 1d a5 3c e2 09 21 bc 88 ee 08 be
       0.07007196 0.02015555 -0.009829016 -0.13372242
000310 45 e6 1b 3e 16 d5 f2 bd 23 1a 46 bd 91 30 bf 3d
       0.1522456 -0.11857049 -0.04836477 0.09335435
000320 f4 e2 84 3d 0a b0 a2 3d 0d 6c 2a be 4a e0 d7 3d
       0.064886004 0.07943733 -0.1664278 0.105408266
000330 05 f6 ba bd 6b 72 47 3d b4 0d 3c 3d 90 25 5a 3d
       -0.09128956 0.0486931 0.045911506 0.05325848
000340 29 e2 64 bc 30 0f 8f 3b b5 63 98 bd b4 6f 99 3d
       -0.013969936 0.004365824 -0.074408926 0.07492009
000350 5f ef 11 3d af 44 62 3e 30 98 19 be 65 dd 92 bc
       0.035628673 0.22096513 -0.14999461 -0.017927835
000360 46 59 c2 3d b7 0b 75 3e 06 0d 28 bc 5b 0a 0a be
       0.09489684 0.2393025 -0.010257011 -0.13480513
000370 3d f8 ff 3d da 03 ae ba 67 55 63 bd 09 14 04 be
       0.124985196 -0.0013276294 -0.055501368 -0.12898268
000380 c1 09 dc 3b 74 70 ba bd 2e d6 82 bd a0 70 68 3c
       0.00671503 -0.0910348 -0.06388508 0.014187008
000390 69 b3 bd bd 2e 41 63 bd 83 24 47 3d 82 80 b9 3d
       -0.092627354 -0.055482082 0.048618805 0.09057714
0003a0 fc 37 85 bd 1e 2d 70 3d 97 44 39 be 81 15 27 bd
       -0.06504819 0.058636777 -0.18092571 -0.040791992
0003b0 a4 45 dc bc 12 b4 a9 3d cb fc 1e 3d 4c 1f 67 3c
       -0.026888676 0.08286299 0.0388153 0.014106583
0003c0 e0 f8 69 bc 75 b8 28 3c 1e 45 0f 3e 60 df ae bd
       -0.014280528 0.010297884 0.1399121 -0.08538699
0003d0 f9 d0 52 3e a8 79 e1 bb 92 ff 79 3d 29 86 90 3d
       0.20587529 -0.0068809576 0.061034746 0.07056839
0003e0 b7 85 c4 3d 84 5c a6 3d 01 dc 26 bc 2b ec d5 3c
       0.095958166 0.08123115 -0.010184289 0.02611359
0003f0 38 8c f7 3c fa 08 6a 3e 23 0a dc 3d 22 48 f0 bd
       0.030218229 0.22854987 0.10744121 -0.11732508

network.0.bias f4 [256]
000000 83 c3 b7 bd 60 01 8a bc b2 db f4 bc ef 20 7e be
       -0.08972838 -0.016846359 -0.029889915 -0.2481725
000010 6b e0 b3 3e d0 d5 57 3d 36 31 c7 bd f1 47 6f 3e
       0.35132155 0.052694142 -0.09726183 0.23367287
000020 da bb 51 be 6e ba 14 bd 63 d6 20 3d c1 81 10 3e
       -0.20481816 -0.036310606 0.039266955 0.14111997
000030 7e 5a 86 3d 5a 3b 0e bd b5 6a 0a be 98 78 45 3d
       0.06560229 -0.03472457 -0.13517268 0.04821071
000040 06 6a bb 3d e4 72 b7 bb 84 b4 e1 3c 70 25 96 3d
       0.09151082 -0.005598413 0.027551897 0.073313594
000050 fa 18 00 3e 55 d5 10 be 45 2b 8d bd 23 69 60 3e
       0.12509528 -0.1414388 -0.06893019 0.21915106
000060 2b ff 4f bd 60 68 01 3d 74 5e 49 bd 87 53 82 3c
       -0.050780457 0.03159368 -0.049162343 0.01590897
000070 02 31 dc bc 65 0b 87 3e 90 05 18 3e 5f 6e 53 3c
       -0.026878837 0.2637588 0.14845872 0.0129047325
000080 e4 b4 66 be 5a 15 82 bd 75 d9 6d bd 50 41 9a 3d
       -0.22529942 -0.06351729 -0.05806871 0.075319886
000090 be cb c4 3d f3 16 b5 3d a2 8c 57 3d d4 1c c9 3c
       0.09609173 0.08842268 0.052624352 0.02454988
0000a0 73 98 95 3d 12 98 5a be 68 a1 0d bd f1 a7 a7 bd
       0.07304468 -0.21347073 -0.034577757 -0.08186329
0000b0 18 ca cc 3c 1e be 37 bd c4 ff da bd 26 b0 0f be
       0.02499871 -0.044859044 -0.10693315 -0.14032039
0000c0 85 f0 ee bd f8 ba f4 3d 3c ed 4e bd 22 e1 40 3e
       -0.11666969 0.11949724 -0.050519213 0.18835881
0000d0 3c 9a 10 bd a0 c8 f5 3d 9f 16 8f bd 64 b7 1e 3e
       -0.03530334 0.12001157 -0.069867365 0.15499645
0000e0 2b 93 52 3e f7 c1 e3 bd 5c bd 01 be 52 cf 05 3e
       0.20563953 -0.1112098 -0.12669891 0.13067368
0000f0 c1 2d f9 3d 9b 9e 4e 3d b2 63 90 be d7 39 93 bb
       0.1216693 0.050444227 -0.2820106 -0.004492979
000100 04 9a 22 3e 67 89 23 be 8f cf 1b be 0d 6c 40 bc
       0.15879065 -0.15970384 -0.15215896 -0.011744511
000110 f6 ef 50 be c3 40 16 3d b2 15 9b 3d 7b 85 af be
       -0.20404038 0.036682855 0.075724974 -0.34281525
000120 5e 1c 30 be 06 10 9b bd c2 d1 09 3e 82 99 c1 3c
       -0.17198321 -0.075714156 0.13458923 0.023632769
000130 8e a2 f8 bd 42 63 44 3e ed e5 c9 bc 61 43 6b be
       -0.1214038 0.19178489 -0.02464577 -0.22974922
000140 43 a1 06 3d 99 4c 51 be 15 9e a9 bc 0c 78 60 3e
       0.032868635 -0.20439376 -0.020705262 0.21920794
000150 cf 91 24 bb bf d8 83 be ef a2 16 3e 6a c0 99 bd
       -0.0025111323 -0.25751302 0.14710592 -0.07507403
000160 0f bf 71 3d eb 56 51 3e 0d 79 54 bd b8 88 66 bd
       0.0590201 0.20443313 -0.051873256 -0.05628273
000170 42 23 a5 3c 5b 85 43 3d 26 da 85 bd c0 c2 07 3e
       0.020158414 0.0477346 -0.06535749 0.13257885
000180 99 08 81 bd 5d 29 21 3e 5d 12 1d 3e dd 0d 26 bd
       -0.06300468 0.15738435 0.15339036 -0.040540565
000190 6c 3a d9 3d b1 1b 02 3e d4 d8 64 3d 6e c1 c4 bd
       0.10606846 0.12705876 0.055870846 -0.09607206
0001a0 24 b7 7f 3c a3 7e 37 3d be c6 9a bd 4c d3 2f 3c
       0.015607629 0.044798505 -0.07557438 0.010731529
0001b0 45 7b 65 be 0d fa 89 3e 4b 04 1e 3e 27 60 1a bd
       -0.22410305 0.26948586 0.15431325 -0.037689354
0001c0 b2 59 c2 bd 5a 0d fa 3d 78 27 f0 bd 52 22 57 be
       -0.09489764 0.12209578 -0.11726278 -0.21009186
0001d0 18 b2 ab 3d 2f 89 8c 3d 27 5f ba bc 8b 02 c4 bd
       0.08383578 0.06862103 -0.02275045 -0.095707975
0001e0 6e f6 3b be 41 50 2d be 50 0a 5f bd be 68 c7 bd
       -0.18355724 -0.16925146 -0.054453194 -0.09736775
0001f0 d8 d1 c4 3d c7 be 9f bd 74 88 8c bd 38 59 a3 bd
       0.09610337 -0.0780006 -0.06861964 -0.079760015
000200 e4 10 68 3e ec ae 18 3e 32 d8 ab 3c 68 37 42 3e
       0.22662693 0.14910477 0.020977113 0.18966448
000210 27 50 77 3e ed 8e b3 3d 2f 1b 9f 3e 30 6a df 3d
       0.2415167 0.08767495 0.31075427 0.109089255
000220 31 19 ca bd 89 da 0f bc 8a 16 e5 bd 47 8c 06 3e
       -0.09868086 -0.00878013 -0.111859396 0.13139449
000230 f6 5e 40 3d 81 ba 3a 3d 6a 17 84 bd ba 12 b8 3d
       0.04696556 0.04558802 -0.064497784 0.08987947
000240 11 89 a7 bd ab 41 0d 3e 73 5d 84 3d 72 9f 02 3e
       -0.0818044 0.13794582 0.064631365 0.12756136
000250 75 c0 5d 3e 11 06 7c 3d f7 39 02 be c4 ee 04 3e
       0.21655448 0.061529223 -0.12717424 0.12981707
000260 b5 f5 3a 3c d1 25 01 be f5 47 11 be ba 2f 29 be
       0.01141112 -0.12612082 -0.14187606 -0.16522112
000270 5d ba d7 bd 82 92 a1 3d f6 05 d6 3d 93 2a 6c 3d
       -0.10533593 0.07889272 0.10450356 0.05765779
000280 0f 94 43 3e 43 8d 5b bd d8 64 d1 bd 55 54 09 bd
       0.19099449 -0.053601515 -0.102243125 -0.03352769
000290 0e 62 2b 3c 45 a4 f5 bd 98 35 6a 3e 46 38 bd bc
       0.01046039 -0.119942226 0.22872007 -0.023098122
0002a0 9a d0 d5 bd 29 08 c2 3d 98 68 5d bd 7a 05 5b 3e
       -0.10440178 0.09474213 -0.054054826 0.21388808
0002b0 c0 d5 9c bd 76 25 6f 3c 8d b2 b0 bd 2b d0 2a 3d
       -0.07657957 0.014596334 -0.08627806 0.04170243
0002c0 9d ad 5d be d4 23 9f 3e 2d 4f b7 3c 00 22 1c be
       -0.2164826 0.31082022 0.022376621 -0.15247345
0002d0 f1 1f c0 bd 5b 68 25 bc a5 0b 0a bc b8 ca c8 bd
       -0.09381092 -0.010095681 -0.008425628 -0.098042905
0002e0 de 49 e5 bc 23 77 03 3e 89 f4 80 3c c9 83 d1 bc
       -0.027989324 0.12838416 0.015741603 -0.025575535
0002f0 55 d9 a4 bd 3d b6 12 3c 2d 8e 34 bd d7 49 88 bd
       -0.08049265 0.008954582 -0.044080902 -0.06654709
000300 47 88 74 3e 13 9a 84 bd 2b 7d 42 3e 57 59 c9 3c
       0.2388011 -0.064747 0.1899306 0.024578733
000310 ca b1 7c bd e2 58 e9 3c 22 62 cc bb 6b 91 38 be
       -0.06169299 0.028484765 -0.0062372843 -0.18024223
000320 fe 3c 3a be cd 5d 83 bd 54 ef 26 3e 65 75 57 3d
       -0.18187329 -0.064143755 0.16302234 0.05260219
000330 01 b5 b3 3d 73 a1 24 3e 9e 58 d3 3d 35 96 ed bb
       0.08774758 0.16077213 0.10319637 -0.007250572
000340 8b a0 44 bd 03 44 2e be 50 bf 37 3e 8a 8c c0 3d
       -0.04800467 -0.17018132 0.17944074 0.09401806
000350 2f c2 4d 3e 63 a5 3b bd 55 a9 b3 bc 6e 5f 1e 3e
       0.20093606 -0.045812022 -0.02193133 0.15466091
000360 d2 e1 9f 3b 7f 39 01 ba d5 0c 00 3d cf 6a c9 bd
       0.004879215 -0.0004929527 0.031262238 -0.09834825
000370 99 ed 04 be 06 64 e1 bd 1b 05 3b 3e 56 60 ea bd
       -0.12981261 -0.11005406 0.18263666 -0.11444156
000380 d7 5d 79 be e0 fd 77 3d 0d 60 30 be a9 9f 1f be
       -0.24352203 0.06054485 -0.1722414 -0.1558825
000390 f2 79 50 3e 4e 2c 26 3e 75 c5 30 bd 1d a5 a6 bd
       0.20359018 0.16227838 -0.04315706 -0.081369616
0003a0 3e 28 76 3c a0 a8 d8 3b f9 a9 04 3d cf 5b f6 bd
       0.015024243 0.0066118985 0.03238866 -0.1202923
0003b0 d9 97 e2 3d 2a 62 40 bc b5 a2 05 3e 63 60 5a bd
       0.11064119 -0.011742154 0.13050349 -0.053314578
0003c0 eb 47 33 3e d6 3e f3 bd ef 6a 32 be 07 7d 77 be
       0.17507903 -0.118772194 -0.17423604 -0.24168788
0003d0 de f3 3d be 99 76 bd 3d b1 a1 58 3d e8 b8 9d bc
       -0.18550059 0.09251136 0.052888576 -0.01925321
0003e0 e9 3e 1a 3d ad aa d1 3d 18 a1 bd 3d 87 85 38 3e
       0.037657652 0.10237632 0.09259242 0.18019687
0003f0 a5 3d 4d 3c 31 00 59 be f0 b5 3f be cb b3 e4 bc
       0.012526904 -0.2119148 -0.18721747 -0.027917763

network.2.weight f4 [256]
000000 62 0e 80 3f be b4 57 3f 08 75 42 3f 4a 95 86 3f
       1.0004389 0.84260166 0.75959826 1.051431
000010 93 6b 7c 3f 93 89 75 3f 39 d1 58 3f d4 ce 61 3f
       0.98601645 0.95913047 0.8469425 0.8820622
000020 99 d0 82 3f b5 6d 83 3f 7a bf 4d 3f 98 96 82 3f
       1.0219909 1.0267855 0.80370295 1.0202208
000030 94 4f 52 3f 04 58 4b 3f 0d 9f 7d 3f c3 af 81 3f
       0.82152677 0.79431176 0.9907082 1.0131763
000040 c7 b1 6f 3f b8 f3 5b 3f 22 a3 7f 3f 89 a0 70 3f
       0.9363064 0.8591876 0.99858296 0.9399496
000050 bb d0 87 3f aa 0d 5c 3f 5c e0 83 3f c1 17 66 3f
       1.0610574 0.8595835 1.0302844 0.89879996
000060 4d 0a 76 3f e9 1b 7c 3f b0 51 4a 3f 74 59 5f 3f
       0.9610947 0.9848009 0.79030895 0.8724587
000070 bd 98 7d 3f 69 bb 50 3f 0e f1 5c 3f 2d ee 81 3f
       0.99061185 0.81535965 0.8630532 1.015081
000080 35 60 83 3f f9 c7 6f 3f c2 ce 6b 3f 46 56 7e 3f
       1.0263735 0.9366451 0.9211236 0.9935039
000090 df e0 85 3f 67 7a 83 3f 51 6a 54 3f 4f 33 56 3f
       1.045925 1.0271729 0.82974726 0.8367204
0000a0 79 4c 7e 3f a1 91 7f 3f 81 27 4e 3f 35 1d 5d 3f
       0.9933544 0.9983159 0.8052903 0.8637269
0000b0 a0 1d 61 3f 17 d0 87 3f 95 ac 61 3f 51 cf 69 3f
       0.8793583 1.0610379 0.88153964 0.91331965
0000c0 86 57 7c 3f 47 b7 5f 3f ad 46 89 3f 4b 46 60 3f
       0.9857105 0.87389034 1.0724694 0.8760726
0000d0 03 51 89 3f 03 1c 70 3f 9d 10 83 3f ee c3 6c 3f
       1.0727848 0.9379274 1.0239445 0.92486465
0000e0 23 01 6a 3f c2 3a 5a 3f e1 6e 7f 3f 7c 26 53 3f
       0.91407984 0.8524591 0.9977856 0.824806
0000f0 17 96 61 3f c2 7c 62 3f a4 17 81 3f a7 e9 7e 3f
       0.88119644 0.88471615 1.008534 0.99575275
000100 90 05 53 3f a3 30 74 3f ce 41 88 3f f3 0c 63 3f
       0.8243036 0.95386714 1.0645082 0.88691634
000110 9d c9 89 3f 0b a4 75 3f 8e 06 84 3f c0 8d 8a 3f
       1.0764652 0.95953435 1.03145 1.0824509
000120 f0 d1 81 3f 12 22 59 3f f2 31 80 3f 4c 43 7f 3f
       1.0142193 0.8481761 1.0015242 0.9971206
000130 f1 65 81 3f d0 d8 61 3f eb 7a 6f 3f 97 97 7e 3f
       1.0109235 0.88221455 0.9354693 0.9945006
000140 b7 f5 5b 3f 65 ef 86 3f 1f 4a 63 3f e1 89 64 3f
       0.85921806 1.0541807 0.88784975 0.89272887
000150 f2 d9 85 3f 80 01 73 3f 7a 3f 83 3f d5 7c 66 3f
       1.0457137 0.94924164 1.0253747 0.9003423
000160 4c f8 49 3f ee 1c 64 3f b9 22 87 3f a3 39 7d 3f
       0.78894496 0.89106643 1.0557472 0.9891607
000170 41 a7 5d 3f 64 cd 68 3f 75 e5 5a 3f 58 14 65 3f
       0.86583334 0.909384 0.85506374 0.8948417
000180 f5 e4 77 3f 23 7b 75 3f 29 87 7a 3f 8a 50 85 3f
       0.96833736 0.95891017 0.9786249 1.0415204
000190 63 bf 48 3f f0 40 7e 3f 8e e3 81 3f b7 f8 71 3f
       0.7841703 0.99317837 1.0147569 0.94520134
0001a0 bc fb 6c 3f 26 1a 58 3f 1f 62 6c 3f 4c 9d 75 3f
       0.92571616 0.844149 0.9233722 0.9594314
0001b0 cd b5 7c 3f a0 fd 62 3f 77 d5 66 3f 61 45 62 3f
       0.98714906 0.8866825 0.9016947 0.88387114
0001c0 c2 7b 8a 3f ae 95 79 3f 0c b1 5d 3f 24 b5 80 3f
       1.0819018 0.9749402 0.8659828 1.005528
0001d0 fd 4e 7c 3f 5d da 76 3f 3a 53 6a 3f 0a 58 5d 3f
       0.98558027 0.96426946 0.91533244 0.8646246
0001e0 ea 57 87 3f ce c3 80 3f 6b d7 66 3f 4e 35 65 3f
       1.0573704 1.0059755 0.9017245 0.8953446
0001f0 8f 23 6a 3f 85 4f 72 3f 34 df 57 3f c7 7c 83 3f
       0.9146051 0.9465259 0.84324956 1.0272454
000200 cd de 52 3f f1 43 5d 3f a3 b1 5b 3f 4a c2 5a 3f
       0.82371217 0.86431795 0.8581793 0.8545271
000210 0c 94 5d 3f f4 e2 4f 3f 2f ba 48 3f 20 5c 5a 3f
       0.86554027 0.8120568 0.78409094 0.8529682
000220 46 f3 54 3f 56 f0 75 3f 16 50 75 3f 62 b9 8b 3f
       0.83183706 0.9606985 0.95825326 1.0915949
000230 e3 4a 5b 3f 1c 9e 86 3f 7a 34 61 3f cb e0 5c 3f
       0.85661143 1.0517001 0.879707 0.86280507
000240 57 5f 73 3f b2 26 60 3f ef c2 72 3f 54 8a 7f 3f
       0.9506735 0.87559044 0.94828695 0.99820447
000250 f8 60 6b 3f 77 e5 63 3f 4e f6 81 3f 7e 70 6a 3f
       0.9194484 0.8902201 1.0153291 0.915779
000260 1d 92 6e 3f eb 0c 81 3f 60 02 73 3f 59 91 64 3f
       0.931917 1.0082067 0.949255 0.8928428
000270 8e b8 83 3f 3c 1f 74 3f 2b 14 82 3f 2e be 82 3f
       1.0290697 0.9536016 1.0162405 1.0214288
000280 7a d9 81 3f cf bc 4e 3f 9f 4f 62 3f e0 45 83 3f
       1.0144494 0.8075685 0.8840274 1.0255699
000290 c3 30 58 3f f1 b7 7b 3f bb 83 7b 3f 4d 1c 76 3f
       0.84449404 0.9832755 0.9824788 0.96136934
0002a0 1c 92 7e 3f 4d f3 80 3f c7 4a 6a 3f ac 17 54 3f
       0.99441695 1.007425 0.9152035 0.8284862
0002b0 d9 05 79 3f 4f 5a 7d 3f a0 f4 6b 3f a1 d3 5e 3f
       0.9727455 0.98965925 0.92170143 0.8704167
0002c0 03 5f 6d 3f 07 ec 66 3f b5 50 6c 3f 21 b7 87 3f
       0.927231 0.902039 0.9231065 1.0602762
0002d0 a8 fd 80 3f d0 b8 82 3f b6 35 83 3f 08 bf 72 3f
       1.007741 1.021265 1.0250766 0.9482274
0002e0 a5 9e 89 3f 00 61 81 3f 9c 0b 69 3f d4 cd 5d 3f
       1.075154 1.0107727 0.9103334 0.86642194
0002f0 12 85 64 3f e1 b2 80 3f ff 4f 79 3f f4 6c 67 3f
       0.8926555 1.005459 0.9738769 0.90400624
000300 e8 1f 87 3f 35 4c 6b 3f d4 d8 80 3f c9 45 76 3f
       1.0556612 0.9191316 1.0066171 0.96200234
000310 12 d0 78 3f ba 3f 6c 3f b9 9c 6b 3f 30 0b 58 3f
       0.9719249 0.9228474 0.92036015 0.8439207
000320 31 89 86 3f eb c2 67 3f d9 a1 57 3f be de 58 3f
       1.0510617 0.90531796 0.84231335 0.8471488
000330 b2 a8 74 3f e1 fd 53 3f 57 22 91 3f 60 be 70 3f
       0.9556991 0.82809263 1.1338605 0.9404049
000340 d7 ed 76 3f 56 4f 89 3f 86 28 76 3f 39 6e 56 3f
       0.96456665 1.0727336 0.96155584 0.83761936
000350 aa c5 7c 3f cf c8 69 3f f4 ad 5a 3f 16 b3 44 3f
       0.9873911 0.91322035 0.8542168 0.76835763
000360 97 08 72 3f 17 53 88 3f ab 36 85 3f 31 ed 59 3f
       0.9454436 1.0650357 1.0407308 0.8512755
000370 db e0 89 3f 46 bc 73 3f 79 7c 60 3f a1 38 59 3f
       1.0771745 0.9520916 0.8768993 0.84852034
000380 e7 80 80 3f 1e e7 86 3f 8d e2 4b 3f ef 1b 77 3f
       1.0039338 1.0539281 0.79642564 0.96527
000390 a8 6f 59 3f a2 98 5e 3f 64 39 88 3f f2 4e 80 3f
       0.84936 0.8695165 1.0642514 1.0024092
0003a0 d3 3e 75 3f 36 a8 49 3f 5a 54 4b 3f b5 72 69 3f
       0.9579899 0.78772295 0.79425585 0.91190654
0003b0 72 03 84 3f a7 56 75 3f 6f 25 5a 3f 89 2d 7d 3f
       1.0313551 0.95835346 0.8521337 0.98897606
0003c0 17 29 59 3f f7 bf 55 3f 87 a1 63 3f 8c 43 89 3f
       0.84828323 0.8349604 0.88918346 1.0723739
0003d0 bf 4f 88 3f 04 f6 51 3f cb 92 54 3f 27 2b 85 3f
       1.0649337 0.82016015 0.8303649 1.0403794
0003e0 a4 02 57 3f 0c 55 56 3f b5 76 6f 3f 86 1f 5a 3f
       0.83988404 0.8372352 0.9354051 0.8520435
0003f0 cd 76 55 3f f3 12 82 3f b2 86 83 3f 04 b0 61 3f
       0.833844 1.0162033 1.0275481 0.88159204

network.2.bias f4 [256]
000000 f4 34 ab be 95 d3 5d bd 1e 5c 4a 3e f6 de b2 be
       -0.33438838 -0.05415686 0.19761702 -0.3493573
000010 63 b0 0c 3e 09 50 91 be 9d 4c 23 3e 6c 0b 4e be
       0.13739161 -0.28381374 0.15947194 -0.20121545
000020 80 23 c9 be 2d f3 9b be fe e0 4d 3d 2b 3c 9c be
       -0.39284897 -0.30458966 0.050263397 -0.30514655
000030 a1 0a 8b 3e 5c 06 5e 3e 4d 6a 95 be a2 19 74 be
       0.27156547 0.21682113 -0.29182664 -0.23837903
000040 61 45 66 3e 49 bb 5c be f6 07 96 3e 7c 9f 49 3e
       0.22487403 -0.21555819 0.2930295 0.19689745
000050 84 76 93 be 5d d4 71 3e 55 7f 99 be 2a f2 4b 3e
       -0.28801358 0.23616166 -0.2997996 0.19916597
000060 2a 5e b5 be ce 16 88 be 2e 60 69 be ce b1 71 3c
       -0.35423404 -0.265799 -0.22790596 0.014751865
000070 cd 1f 6d be d2 91 9f 3e 40 43 ab 3e 17 61 99 be
       -0.23156662 0.3116594 0.33449745 -0.29956886
000080 75 4a b6 be 41 b4 b0 be 7e 92 3e be f8 9a 05 be
       -0.3560368 -0.34512523 -0.1861057 -0.13047397
000090 e3 32 99 be 35 a3 a4 be 94 7a 59 3e 50 65 44 3d
       -0.29921636 -0.32155767 0.21238166 0.04794818
0000a0 ca 7e a0 be 92 e0 91 be 02 c9 37 3e 4a 4e 65 be
       -0.31346732 -0.28491646 0.17947772 -0.22393146
0000b0 67 83 31 be 68 07 a6 be e6 bf a9 3e 7b 0c 81 be
       -0.17335282 -0.32427526 0.3315422 -0.25204834
0000c0 d3 4e 5f be 64 d0 64 bd a8 e4 8c be 5e c7 60 3e
       -0.21807413 -0.0558628 -0.275182 0.21951053
0000d0 3b 25 8a be 2a 0b 82 3e cd c4 9f be ae b2 6a 3e
       -0.2698153 0.25399143 -0.31204835 0.22919723
0000e0 9e 80 8b be 59 49 28 be d3 0a 78 be 7f 7c 29 3e
       -0.27246565 -0.1643423 -0.24222879 0.16551398
0000f0 c1 cf 9e 3e 23 ad dc bd 57 cf c1 be 83 06 93 be
       0.3101788 -0.10775211 -0.378535 -0.28715906
000100 59 4f 7d bd 88 6f a3 be 33 ac 8c be dc bf 8b 3e
       -0.06184325 -0.3192103 -0.27475128 0.27294815
000110 ff 0a 98 be c0 ec 84 be c6 88 80 be 3a a9 6a 3c
       -0.2969589 -0.25961876 -0.2510435 0.014322573
000120 7b 86 a6 be 81 6f 59 bc e8 d6 82 be ff 4f a1 be
       -0.32524475 -0.0132712135 -0.25554585 -0.31506345
000130 76 a8 71 be a2 98 47 39 72 85 41 bd 7a 67 84 be
       -0.23599419 0.00019034979 -0.047246404 -0.25860196
000140 75 66 b2 bd 59 03 96 be 38 e0 84 be 42 4b d5 bd
       -0.087109484 -0.2929943 -0.25952315 -0.10414745
000150 0c 84 a5 be 7a 86 b9 be 89 68 99 be 93 3f 8d 3e
       -0.32327306 -0.3623541 -0.29962566 0.27587566
000160 5f 5f 79 3e 52 fd 09 3e a3 6b 43 3e 6d 43 a3 be
       0.24352787 0.1347554 0.19084029 -0.3188738
000170 59 e7 04 3e 40 9c 55 be 94 3d c1 3d 05 78 ea 3d
       0.12978877 -0.20860386 0.09435573 0.11448673
000180 61 82 a3 be 3c c1 7c 3e f7 c8 0b 3e 64 c2 4d 3e
       -0.3193541 0.24683088 0.13650881 0.20093685
000190 1c 61 4c 3e 16 a1 91 be 03 6c 30 3e d8 61 96 be
       0.1995892 -0.2844321 0.17228703 -0.29371524
0001a0 6c 50 ff bc cc 85 bc 3d bf a7 22 3e a8 68 4c be
       -0.031166278 0.09205207 0.15884303 -0.19961798
0001b0 b2 fa 87 be 21 c5 5f 3e 63 3f 79 3e 91 92 ab 3e
       -0.26558453 0.21852542 0.24340586 0.3351026
0001c0 49 1a a5 be 61 66 67 be 9f d9 95 3e 7f 33 7b be
       -0.32246616 -0.22597648 0.29267594 -0.24531363
0001d0 5c 7d 89 be 78 8c 74 be ce f6 7e be ab dc c3 bd
       -0.26853454 -0.2388171 -0.24898836 -0.095635734
0001e0 2e b5 8b be 72 14 ab be 6f 08 7a 3e 01 f2 6c 3e
       -0.27286667 -0.33414036 0.2441728 0.23139192
0001f0 87 13 b8 3e 5e a1 03 bd c7 9d 72 3e 39 a2 a1 be
       0.35952398 -0.032136314 0.23693 -0.3156908
000200 33 6c a5 3e 6e bb eb 3c fd fa 86 3e 69 ca 59 3e
       0.32309112 0.028775897 0.26363364 0.2126862
000210 59 3c 21 be 1f 99 38 3e ad 8a 8a bb 64 54 55 3e
       -0.15745677 0.18027161 -0.004227957 0.20832974
000220 a4 3e 6f 3e a5 85 87 3e 13 4b 7b be 6e 1d 5b be
       0.23363739 0.2646915 -0.24540357 -0.21397945
000230 14 4f 73 3e 50 9a 0a be 33 d4 6b 3e 35 b5 78 3d
       0.23760635 -0.13535428 0.23030166 0.060719687
000240 e9 64 67 3e 90 96 5e 3e d6 f6 74 3e 0e 69 8c be
       0.22597088 0.21737123 0.23922285 -0.274239
000250 2a 32 59 3e b5 c8 92 3e 62 6b aa be d5 2e 9b 3d
       0.21210542 0.28668752 -0.33285052 0.07577292
000260 97 ad 81 3e 2c a1 9b be 43 07 96 be f6 78 b9 3d
       0.2532775 -0.30396402 -0.29302415 0.090562746
000270 b2 72 a9 be 92 69 e5 3d 6e 71 53 be 15 87 c0 be
       -0.33095318 0.112017766 -0.20648739 -0.3760306
000280 b9 3a d0 3d 16 a7 7a 3e a7 a0 ec 3c cf 22 b1 be
       0.101674505 0.244778 0.028885199 -0.3459687
000290 f4 dd 2a be fd 2e 9a be 5d 45 6e 3e 39 08 db bb
       -0.16686231 -0.30113974 0.23268647 -0.00668433
0002a0 f9 90 c3 be b1 69 05 3e 61 d4 5f 3e 1f 70 7a 3e
       -0.38196543 0.130286 0.2185836 0.24456833
0002b0 63 3d 89 be 2f 4b 91 be 7f 47 1e 3e b8 3c 7c 3e
       -0.26804647 -0.28377673 0.15456961 0.24632537
0002c0 fd e8 a6 be fd 1f 27 3e 1b e9 d1 bd cb e4 6e be
       -0.3259963 0.16320796 -0.102495395 -0.23329465
0002d0 f9 42 26 be 17 ef 81 be 68 ab 38 be 2f 75 84 3e
       -0.16236486 -0.25377724 -0.18034136 0.25870654
0002e0 4a c9 b0 be 9b b4 69 3e eb 6e ea 3d 69 3c 53 be
       -0.3452857 0.22822802 0.11446937 -0.20628513
0002f0 bb b8 37 bd 32 21 8e be 24 e7 a0 be 7b fb 58 be
       -0.044853907 -0.277597 -0.31426346 -0.21189682
000300 74 20 78 3e 39 db 47 be 98 e0 0f 3e 69 aa 3e 3e
       0.2423113 -0.1951722 0.1405052 0.18619694
000310 4e 15 b5 be cb cf 80 bd cb b6 77 3e 11 15 47 be
       -0.35367817 -0.06289633 0.24190824 -0.1944163
000320 d5 56 a7 be 07 bb 8c 3e f0 68 15 3e a4 44 60 3e
       -0.32683435 0.2748644 0.14590812 0.21901184
000330 5e f1 09 be 13 71 e5 3d f2 a4 a6 be f7 1e 32 be
       -0.1347098 0.11203208 -0.32547718 -0.17394625
000340 a4 3d 6a 3e 7c f7 2c 3e 13 7a dc bd 2a de 0a 3d
       0.22875077 0.16891283 -0.10765471 0.03390328
000350 38 7c 6a 3e 30 7f ad 3e 87 f6 ae bd 35 37 7d 3d
       0.22898948 0.338861 -0.08543115 0.061820228
000360 e0 97 f2 bd 91 8a aa be e9 4e 59 be 41 7d c2 3d
       -0.11845374 -0.33308843 -0.21221508 0.094965465
000370 bf 14 a0 be eb c7 3c 3e 16 fc cb 3d 46 9a 99 3e
       -0.31265828 0.18435638 0.09960191 0.30000514
000380 93 15 a9 be ad 03 89 be d4 97 43 3e 38 5c 99 be
       -0.33024272 -0.26760617 0.19100887 -0.2995317
000390 8f 1c bb 3c 6a 17 80 3e 99 c2 f1 3d c9 96 7c be
       0.022840766 0.25017864 0.11804695 -0.24666895
0003a0 ba 9a 81 3e 00 48 66 3e 7b 22 80 3d b8 58 bd 3d
       0.2531336 0.22488403 0.06256577 0.092454374
0003b0 56 f1 6e 3e f0 2a 58 be dc d0 60 3e f2 f0 98 be
       0.2333425 -0.2111013 0.21954674 -0.29871327
0003c0 e2 48 03 be 31 da 82 3e 1b 1b 17 be 7c cc 9c be
       -0.12820771 0.25557092 -0.14756434 -0.3062476
0003d0 ea 3d a4 be ca fd 2f be 9b 36 7b 3e aa 1c 63 be
       -0.32078487 -0.17186657 0.24532549 -0.22178903
0003e0 ab 3e 96 3e 81 3d 19 bd 32 6e 97 be 33 90 e8 bc
       0.29344687 -0.03741217 -0.2957626 -0.028389072
0003f0 5c ad 4e 3e 75 8c bc bd d6 af 6a be 78 53 2f be
       0.20183319 -0.092064776 -0.22918639 -0.17121685

network.2.running_mean f4 [256]
000000 0e 1b 73 3e 15 42 5f 3e d3 28 73 3e e7 7e 05 3e
       0.2374079 0.21802552 0.23746042 0.1303669
000010 15 8f ba 3e a9 66 64 3e cb 3e 0e 3e 6e eb a4 3e
       0.36437288 0.22304787 0.13891141 0.3221087
000020 5f 35 1f 3e 02 ea 2e 3e 6d 48 61 3e 9c 0d 77 3e
       0.15547703 0.17081454 0.22000284 0.24126285
000030 32 39 a3 3e 2e 6d 75 3e 6d f8 08 3e ac 90 81 3e
       0.31879574 0.2396743 0.13376017 0.25305688
000040 3e c3 48 3e b4 d8 77 3e 16 3a 93 3e 9e a6 82 3e
       0.19605729 0.2420376 0.28755254 0.25517744
000050 4f 6c 4a 3e 37 6d 0d 3e e0 ea 32 3e 03 34 af 3e
       0.19767879 0.13811193 0.1747241 0.3421937
000060 d2 2a 51 3e 51 37 6c 3e 08 94 49 3e 72 b4 75 3e
       0.20426491 0.23067977 0.19685376 0.23994616
000070 06 a7 70 3e da d7 a9 3e f6 31 84 3e 5d 1c 84 3e
       0.23501214 0.33172494 0.25819367 0.2580289
000080 c8 57 82 3d a1 6f 74 3e 91 bd 21 3e da bf 58 3e
       0.06364399 0.23870708 0.1579497 0.21166936
000090 9e 0c 99 3e d4 ee 7d 3e 67 28 6b 3e 5e 22 47 3e
       0.2989244 0.24798137 0.22964631 0.19446704
0000a0 0f 37 86 3e f5 78 ea 3d f7 72 62 3e 2d bb 58 3e
       0.2621388 0.11448852 0.22114168 0.21165152
0000b0 f3 b6 52 3e 5f ab 25 3e 1f 87 45 3e 8f 4f 3b 3e
       0.20577602 0.16178654 0.19289826 0.18292068
0000c0 66 0b 2a 3e f2 ad aa 3e ad 65 2b 3e e8 e0 9e 3e
       0.1660591 0.33335835 0.16738005 0.31030965
0000d0 e2 e1 5b 3e 42 05 3f 3e 87 bf de 3d 86 09 9f 3e
       0.21472886 0.1865435 0.10876375 0.31061953
0000e0 fd 4d 90 3e 25 4b 4f 3e 5f 46 30 3e 47 62 93 3e
       0.281845 0.20243509 0.17214344 0.28785917
0000f0 10 99 98 3e 69 14 64 3e 05 45 21 3e 99 dd 78 3e
       0.29804277 0.22273411 0.15748985 0.24303283
000100 7a 0f ad 3e 46 1d 44 3e 58 ab 0b 3e 41 3f 0d 3e
       0.3380087 0.19151792 0.13639581 0.1379366
000110 c8 4e f4 3d ac 4b 60 3e 20 57 81 3e 08 ee d4 3d
       0.11929089 0.21903867 0.25261784 0.10396963
000120 b7 62 3b 3e 3e fd 64 3e 37 18 61 3e c4 c9 60 3e
       0.18299375 0.22362229 0.21981893 0.21951967
000130 67 33 f6 3d da 70 be 3e 1b cf 43 3e 09 84 3d 3e
       0.12021523 0.37195474 0.19121973 0.18507399
000140 4c 89 85 3e 1a 61 1f 3e f4 66 85 3e 8b 13 01 3f
       0.26081312 0.15564385 0.2605511 0.50420445
000150 c4 ff 4f 3e b8 b2 1a 3e b4 f1 58 3e 1f c8 42 3e
       0.2031241 0.15107238 0.21185952 0.19021653
000160 3d c5 79 3e 4d ed f5 3e 07 41 1f 3e 90 ee 22 3e
       0.24391647 0.4803261 0.1555215 0.15911317
000170 41 8e 7f 3e 14 65 87 3e 24 90 26 3e d4 1d 96 3e
       0.2495661 0.26444304 0.16265923 0.29319632
000180 7c a2 3f 3e 6e 67 85 3e 29 2a 8e 3e 1c c1 de 3d
       0.18714327 0.26055473 0.2776654 0.108766764
000190 84 66 74 3e 4c 2d ac 3e 9c f1 21 3e c1 24 1c 3e
       0.23867232 0.3362831 0.15814823 0.15248396
0001a0 2b 38 5f 3e 55 05 8e 3e 45 ad d9 3d 50 51 9b 3e
       0.2179877 0.27738443 0.10628752 0.30335474
0001b0 67 6d db 3d dc 17 c5 3e f7 3d a2 3e db 4f 83 3e
       0.10714226 0.38494766 0.316879 0.25646862
0001c0 9c b5 2d 3e 5d 77 81 3e f5 ff 13 3e ce 99 2a 3e
       0.1696381 0.2528638 0.14453109 0.16660234
0001d0 05 02 71 3e fc f2 77 3e 3a 3e 68 3e 67 4e 25 3e
       0.23535927 0.24213785 0.22679988 0.1614319
0001e0 c3 7d 1c 3e ee 7b 06 3e 9e f7 0b 3e dd 7d 2b 3e
       0.1528235 0.13133213 0.13668677 0.16747232
0001f0 03 d8 86 3e 56 b3 13 3e e7 e1 55 3e 8f 02 12 3e
       0.2633668 0.1442388 0.20886956 0.14258789
000200 38 01 98 3e c4 72 88 3e 6b 18 86 3e 52 b9 d1 3e
       0.2968843 0.2665006 0.26190504 0.409617
000210 a9 ca c1 3e df d9 82 3e e2 51 d9 3e 25 cc 72 3e
       0.3784993 0.25556847 0.42445284 0.23710687
000220 f2 cb 2d 3e 7f 18 4c 3e 7d 2d 42 3e 62 0c 57 3e
       0.1697233 0.1993122 0.18962665 0.21000817
000230 75 eb 8e 3e fb 71 33 3e f4 9f 64 3e a1 d8 a7 3e
       0.27914014 0.17523949 0.22326642 0.32782462
000240 39 d6 f3 3d 4e 98 7b 3e 82 d0 32 3e 47 30 58 3e
       0.11906094 0.24569818 0.17462352 0.21112166
000250 29 0a 97 3e 4f 40 62 3e 36 67 11 3e 6f b0 66 3e
       0.2949994 0.22094844 0.14199528 0.22528242
000260 bc 4e 2e 3e 51 53 2e 3e 9e 82 d7 3d bf 13 05 3e
       0.17022222 0.1702397 0.1052296 0.12995814
000270 b0 45 22 3e bc a4 48 3e b2 51 5b 3e df d2 84 3e
       0.15846896 0.19594091 0.21417883 0.25942132
000280 75 15 93 3e a8 14 80 3e ad ac 45 3e ae 62 4f 3e
       0.28727308 0.2501576 0.19304152 0.20252487
000290 3f c4 5f 3e 54 ca 0f 3e 5f af ba 3e 13 55 59 3e
       0.21852206 0.14042026 0.36461923 0.2122386
0002a0 15 b3 62 3e bd 63 6f 3e 09 01 43 3e 17 24 cb 3e
       0.22138627 0.23377891 0.19043364 0.39675972
0002b0 85 df 45 3e 4f 14 3c 3e a3 f2 19 3e d9 10 44 3e
       0.19323547 0.18367122 0.15033965 0.19147052
0002c0 99 e6 5a 3e 5b f9 b6 3e 8b ef 88 3e ba 64 12 3e
       0.21377029 0.35737118 0.26745257 0.14296237
0002d0 1a dc 05 3e 8f 54 1d 3e 56 21 44 3e 4e 7f fb 3d
       0.13072243 0.15364288 0.19153342 0.12280141
0002e0 99 e3 31 3e 94 ef 57 3e a6 3f 8a 3e e1 21 15 3e
       0.17371978 0.21087486 0.27001685 0.14563705
0002f0 83 1b 24 3e 91 f0 85 3e a1 b4 2e 3e 9c de 29 3e
       0.1602612 0.261601 0.17061092 0.16588825
000300 0f 4d 82 3e 6c b8 60 3e 1a ab 81 3e 2c e7 43 3e
       0.25449416 0.21945351 0.25325853 0.19131154
000310 85 a9 1a 3e dd 40 3f 3e 6e ea 82 3e 60 7f 38 3e
       0.15103729 0.18677087 0.2556948 0.1801734
000320 b7 79 ed 3d c2 16 27 3e e3 f0 8b 3e ac b7 7c 3e
       0.11595481 0.16317275 0.2733222 0.2467944
000330 02 e8 8b 3e 9a b1 90 3e 1d 2e 6c 3e 40 56 43 3e
       0.27325445 0.282605 0.23064466 0.1907587
000340 d5 f3 31 3e e6 29 dd 3d 8b 9b 91 3e 84 6c 9c 3e
       0.17378171 0.10799007 0.28438982 0.3055154
000350 f6 8c a0 3e c3 f6 2d 3e 63 c4 06 3e 8e 25 a9 3e
       0.31357545 0.16988663 0.13160853 0.33036464
000360 00 f5 2b 3e d3 c8 54 3e 18 7c 7b 3e bb 3d 17 3e
       0.16792679 0.20779733 0.24559057 0.14769642
000370 45 08 0b 3e 70 3f 26 3e b6 c4 95 3e ab 5c 2b 3e
       0.13577373 0.16235137 0.2925164 0.16734569
000380 4f 1d 27 3e e0 ac 58 3e 63 69 0b 3e 2c ae 1b 3e
       0.16319774 0.21159697 0.1361442 0.1520316
000390 54 ad cc 3e b2 70 a3 3e 9a f9 e4 3d 46 82 21 3e
       0.3997599 0.31921917 0.1118042 0.15772352
0003a0 36 e5 81 3e 70 51 5c 3e e8 1d 6b 3e 08 5c 6d 3e
       0.25370187 0.21515441 0.22960627 0.23179638
0003b0 63 6e 2f 3e dc 06 62 3e 35 87 6d 3e f9 32 43 3e
       0.17131953 0.22072929 0.23196109 0.19062413
0003c0 cc 74 88 3e d7 9b 13 3e 16 64 20 3e 0b da e7 3d
       0.2665161 0.14414917 0.1566318 0.11320885
0003d0 d0 e3 24 3e 15 11 77 3e 8c 07 6b 3e 38 67 36 3e
       0.16102529 0.2412761 0.22952098 0.17812812
0003e0 ac 62 7c 3e 0c 38 84 3e 40 7b 9a 3e 74 ad 92 3e
       0.24647015 0.2582401 0.30172157 0.2864796
0003f0 65 3c 63 3e ba 4d 18 3e 33 79 45 3e c8 5b 5f 3e
       0.22191007 0.148734 0.19284515 0.21812356

network.2.running_var f4 [256]
000000 ea 88 ce 3e b1 b3 b8 3d 9f da de 3d 99 89 5d 3e
       0.40338832 0.090186484 0.108815424 0.2163452
000010 70 d1 74 3d 1d 8c 19 3e 7a d7 62 3d 9d c1 ac 3e
       0.059770048 0.14994855 0.055381276 0.33741465
000020 3d 64 51 3e e9 f6 77 3e 64 7a 95 3d 1e cd 87 3e
       0.20448394 0.24215282 0.07298735 0.2652368
000030 c4 cc 37 3e 7a 8d fa 3d 53 3d 33 3e e8 c3 88 3e
       0.17949206 0.12234016 0.17503862 0.26711965
000040 c5 8f 93 3d d9 ef 28 3e 17 8e eb 3d aa 66 18 3e
       0.07205156 0.16497745 0.11501711 0.14882913
000050 14 9b 03 3e 28 5a 75 3d 45 a8 7a 3e df 85 06 3e
       0.12852126 0.059900433 0.24478252 0.13137005
000060 97 d6 15 3e c7 51 82 3e 95 01 b8 3d a0 7b 01 3e
       0.14632641 0.25453016 0.08984677 0.12644815
000070 34 62 1b 3e 21 b9 e4 3d 1b 9d c4 3d 0f 2e c8 3e
       0.1517418 0.11168123 0.09600278 0.3909764
000080 0c 80 4b 3d 2b f7 9a 3e df c0 13 3e 6c 1d 17 3e
       0.049682662 0.302667 0.14429043 0.14757317
000090 51 4c 9a 3e 6e cb 72 3e 74 2c 9c 3d c1 05 95 3d
       0.3013635 0.23710415 0.07625666 0.07276488
0000a0 4c 21 ec 3e 23 f6 24 3e 8f f6 ce 3d b5 58 bf 3d
       0.46119153 0.16109519 0.10105621 0.093430914
0000b0 c6 78 b8 3d 31 ee d1 3d ab b1 b6 3d e1 00 11 3e
       0.09007411 0.102505095 0.08920606 0.14160492
0000c0 a7 41 50 3e 1d fe 69 3e ed f7 55 3e 36 c3 05 3e
       0.20337544 0.22850843 0.20895357 0.13062748
0000d0 1f 42 33 3e c2 41 38 3d a8 a8 04 3e 3b 39 01 3e
       0.17505692 0.044984587 0.12954962 0.12619488
0000e0 16 0c fc 3d dd 05 1a 3e cc 45 ef 3d 1c 98 e9 3d
       0.12306993 0.15041299 0.116832346 0.11405966
0000f0 56 47 fe 3d 6f fe 67 3e f4 22 78 3e 2c f4 c9 3e
       0.1241595 0.22655652 0.24232084 0.394441
000100 5f 3f 28 3e fc f3 3e 3e 8d 80 23 3e 98 df 26 3d
       0.16430424 0.1864776 0.15967007 0.04074058
000110 be eb c6 3d 6c 2a 88 3e 9d f1 53 3e 65 1e 48 3d
       0.09712933 0.26594865 0.20697637 0.04885711
000120 16 44 6e 3e 6b 50 9c 3d 49 f0 ea 3d cb 0d 94 3e
       0.2326816 0.07632526 0.11471612 0.28916773
000130 8f e0 fb 3d 11 8d 08 3e 23 2b f9 3d ce 4d 5b 3e
       0.122986905 0.13335063 0.12166431 0.21416399
000140 04 14 07 3e fb 68 8b 3e 8d 8c 15 3e 1b 3d 5d 3e
       0.13191229 0.2722853 0.14604397 0.21605341
000150 8b 46 59 3e 7d bd 77 3e 37 89 3f 3e 6a 52 a3 3d
       0.21218316 0.24193378 0.18704687 0.079747036
000160 c5 b9 d2 3d 96 6c 3a 3e 92 f9 89 3d 6a ff 36 3e
       0.10289339 0.18205485 0.06737055 0.1787087
000170 93 15 fa 3d f6 7f 86 3e 47 af ae 3d c5 bd 00 3e
       0.12211146 0.262695 0.08529525 0.12572391
000180 58 de 60 3e 3f b7 af 3d c6 dd f0 3d 72 b7 19 3d
       0.21959817 0.08579873 0.1176105 0.037528463
000190 7a 84 b8 3d 7f 02 00 3f 97 e0 40 3d 74 83 2e 3e
       0.09009643 0.5000381 0.047089186 0.17042333
0001a0 8c 00 02 3e dc 6a eb 3d cc 8c f7 3c 91 89 c8 3e
       0.12695521 0.11494991 0.030218504 0.39167455
0001b0 ac 39 b8 3d eb 12 ba 3d a3 52 ef 3d ee 78 16 3e
       0.08995375 0.090856396 0.116856836 0.14694569
0001c0 31 69 93 3e 1c 04 3f 3e 63 3e 81 3d 97 cd 64 3e
       0.28791192 0.18653911 0.063107274 0.22344051
0001d0 32 1c 86 3e 61 b0 25 3e 23 ad 4a 3e d3 61 a7 3d
       0.26193386 0.16180564 0.19792609 0.08172955
0001e0 bd dd 48 3e 02 9e 19 3e e8 0d 6b 3d 3b 73 9c 3d
       0.19615836 0.15001681 0.05738631 0.07639166
0001f0 34 4a f5 3d a7 f2 79 3d 6f 97 a4 3d 95 e4 35 3e
       0.11977044 0.061022427 0.08036696 0.17762978
000200 b9 02 a1 3d 54 99 e0 3d fa ea f0 3d 98 e0 42 3e
       0.078618474 0.10966745 0.11763568 0.19030988
000210 b6 29 6a 3e 52 88 dd 3d 19 a4 62 3e 95 7d 9e 3d
       0.22867474 0.10817017 0.22132911 0.077387966
000220 96 bf 8e 3d 00 32 aa 3d 88 41 82 3e e2 45 07 3e
       0.06970136 0.08310318 0.2544062 0.13210252
000230 25 93 bb 3d 8a c0 e5 3d 70 f1 02 3e 64 3b 28 3e
       0.09158925 0.112183645 0.12787414 0.16428906
000240 0e f7 4a 3d 31 14 92 3d 5e 6e 66 3d e0 f8 3c 3e
       0.049552016 0.071327575 0.056257598 0.18454313
000250 90 e6 b6 3d 14 50 9d 3d 81 c8 3e 3e db 2a 97 3d
       0.08930695 0.07681289 0.18631174 0.07381221
000260 1c 46 56 3d e0 f0 72 3e 70 f8 af 3d 1f ea 57 3d
       0.052312955 0.23724699 0.085923076 0.05271351
000270 f6 c3 1c 3e b6 7a 7c 3d a1 8c 0a 3e d9 19 e8 3e
       0.15309128 0.061640464 0.13530208 0.4533222
000280 ba 6a a8 3d 00 02 c0 3d 1b 49 a7 3d 69 a9 89 3e
       0.082234815 0.093753815 0.08168241 0.26887062
000290 27 42 44 3e f7 b5 0e 3e ae fb 02 3e cc 3c e3 3d
       0.1916586 0.13936602 0.1279132 0.110955805
0002a0 ae 73 8c 3e 1d 17 cb 3d dc 9a 99 3d d8 df 09 3e
       0.27432007 0.09916518 0.0750024 0.13464296
0002b0 6e 2e 3b 3e f5 4a 0c 3e 57 c6 92 3d c4 8f 81 3d
       0.1827943 0.13700469 0.071667366 0.06326249
0002c0 79 2b bc 3e 42 24 e8 3d 22 dc f9 3d 85 62 bc 3d
       0.36751917 0.11335041 0.1220019 0.091984786
0002d0 1c 2e df 3d 6d ff b1 3d 17 7d 5e 3e 89 0f 23 3d
       0.108974665 0.08691297 0.21727405 0.039809737
0002e0 d4 79 a1 3e cf 64 91 3d 21 19 e9 3d 6f f4 86 3d
       0.3153826 0.07099306 0.11381746 0.06589591
0002f0 25 f5 80 3d 6b ee 1a 3e cd aa 52 3e 9f 6e 00 3e
       0.062967576 0.15130012 0.20572968 0.12542199
000300 66 f4 01 3d 15 b7 b4 3d 04 62 7d 3d 20 27 bc 3d
       0.031727217 0.088239826 0.061861053 0.0918715
000310 09 0e 6a 3e fd 3d 6a 3d a2 6f bb 3d 12 2c a0 3d
       0.22856916 0.057188023 0.09152152 0.07820906
000320 61 c3 0b 3e 7b 35 42 3d 32 8d b5 3d d1 6c d3 3d
       0.1364875 0.047414284 0.088648215 0.103234895
000330 40 a7 84 3e 3c af b5 3d e2 c2 a2 3e 71 b1 eb 3d
       0.25908852 0.08871314 0.3178931 0.11508454
000340 1d 78 8c 3d a8 a7 47 3d ac 1c 1a 3e 13 33 26 3e
       0.06858847 0.048743874 0.1505 0.16230421
000350 f9 ba f6 3d 60 ca 88 3d 10 57 18 3d 2d c9 1f 3e
       0.12047381 0.06679225 0.037192404 0.15604086
000360 de 7e 8d 3d 1a 8e 9f 3e 57 fd b2 3e 7a 68 67 3d
       0.069089636 0.31163102 0.34958908 0.05649612
000370 7e 71 ed 3d c5 3c 89 3d f8 99 de 3d 0a 27 a1 3d
       0.115939125 0.06701044 0.10869211 0.07868774
000380 48 8e 56 3e d9 8b 95 3e 68 93 6c 3d 35 62 05 3e
       0.20952713 0.29208258 0.057757765 0.13025744
000390 86 a6 07 3e 41 b6 e5 3d e1 eb 2d 3d e7 f1 7b 3e
       0.13247117 0.11216403 0.04246128 0.24603997
0003a0 d7 88 a8 3d 4c 12 c1 3d 56 a1 d6 3d 10 00 19 3e
       0.08229225 0.09427318 0.10479991 0.1494143
0003b0 5d f7 36 3d 54 6d 9b 3e 4a 28 a1 3d 1f 7e 5e 3e
       0.044669498 0.30356848 0.07869013 0.21727799
0003c0 aa 88 bd 3d bb 8b 70 3d d3 7f d0 3d 35 16 3a 3e
       0.09254582 0.058727007 0.101806305 0.18172534
0003d0 fa c7 65 3e 46 63 c4 3d 8e 28 d2 3d ca 0b b8 3d
       0.22439566 0.095892474 0.102616414 0.089866236
0003e0 07 e8 ea 3d 52 6f e4 3d 1e ff c5 3d d9 41 15 3e
       0.11470037 0.11154045 0.096678 0.145759
0003f0 a1 8b ea 3d 43 7b a8 3d a9 e8 15 3e 54 df c8 3d
       0.11452413 0.08226635 0.14639534 0.098082215

network.4.weight f4 [128, 256]
000000 fc 51 92 3c f6 a9 22 3d ec d9 3e 3d 6f 6f 8e 3d
       0.017861359 0.03971287 0.046594545 0.06954848
000010 39 54 33 bc 7c a3 8b b8 2f 4c 2d bd 6d e0 8b 3c
       -0.010945373 -6.658488e-05 -0.042308982 0.017074788
000020 f8 2e 4f bb ee 7b 50 3c 7c 38 60 bb 58 63 95 3d
       -0.003161369 0.01272486 -0.0034213355 0.07294339
000030 61 c7 01 3d 51 97 07 bd 68 b4 05 3e 54 9a 7e 3d
       0.031684283 -0.03310329 0.13057101 0.062158898
000040 e0 32 a0 3a 05 d3 95 3c 7f d2 81 bd 36 2a 61 bd
       0.0012222193 0.018289099 -0.06338977 -0.054971896
000050 f2 7f d3 3d 52 7a 16 bb 98 93 63 3d 89 b5 6f 3d
       0.10327138 -0.0022961092 0.05556068 0.058522735
000060 44 ec 8d ba 0c aa 21 3c 1b d3 53 3d 5b d0 50 3d
       -0.0010827859 0.0098672025 0.051714998 0.050979953
000070 ae a8 a8 3c ac 8d 12 3c 13 6d eb bc 8e f7 96 3d
       0.020588245 0.00894491 -0.028738534 0.07371436
000080 a0 b3 82 3d 87 18 26 3d 93 a0 18 3d 50 69 db 3c
       0.06381917 0.040550735 0.03726251 0.026783615
000090 be f7 97 3c 3a c3 77 3d b0 e6 5f 3c 57 c3 84 bd
       0.01855075 0.060488917 0.01366584 -0.064825706
0000a0 52 08 34 3c 19 eb a9 3d b4 7a 73 bc 31 50 39 3d
       0.010988312 0.082967944 -0.014860798 0.045242492
0000b0 78 8b 91 3d dc 7c 9a 3d a5 6a 4c bd a0 c8 9d 3d
       0.0710668 0.07543346 -0.04990639 0.07704282
0000c0 cc 5d fc 3c 35 84 0c 3d 5a 78 a6 3d 46 ab 7e 3c
       0.030806445 0.03430577 0.08128424 0.015543764
0000d0 0c 4b 81 bc de 87 63 3d 0c d9 83 3d 7c e9 f3 3c
       -0.015782855 0.055549495 0.06437883 0.02977442
0000e0 e5 71 69 3d d1 73 ef bc 68 17 c6 3d ca 37 51 bc
       0.056993384 -0.02923003 0.09672433 -0.012769649
0000f0 17 3f 45 bd 18 4e f3 ba d0 b1 20 3d 8c 43 83 3d
       -0.04815587 -0.0018562702 0.039232075 0.06409368
000100 41 41 03 bd 19 55 20 bc 86 11 a1 3d ab 22 a3 3c
       -0.032044653 -0.009785914 0.078646705 0.019913992
000110 22 0f 62 3d 22 12 18 3c 79 e4 6e 3d c6 88 27 bd
       0.055190213 0.009281667 0.058323357 -0.04090192
000120 82 dd a5 3d 84 1b 68 3d 53 51 31 3c 8e 7e 3d 3d
       0.0809889 0.056666866 0.010822612 0.04626327
000130 59 c0 ba 3d 1d 5d d8 bc fa ae 1d bd 81 dd 6a 3b
       0.09118719 -0.026411587 -0.03849695 0.0035837593
000140 7e 14 c7 3c e4 51 d3 3c 1b d7 31 3d 38 f0 6a 3d
       0.024301764 0.025795884 0.04341803 0.057357997
000150 af 01 8d bc 9b 61 5c 3d 82 3b 8b 3d c9 72 10 bd
       -0.017212717 0.05380402 0.067984596 -0.035265718
000160 28 4b a0 bc 97 d3 24 bd 57 c6 6c 3d 9a a2 01 3d
       -0.019567087 -0.04024085 0.05780634 0.03164921
000170 ed f2 c5 bc d8 fa 77 3d 15 4c 1a bc 92 a1 f9 3c
       -0.024163688 0.060541958 -0.009417553 0.03047255
000180 7e 3d 89 3d ca 4a a8 3c b2 2f be bb 96 57 68 3d
       0.06701182 0.020543475 -0.0058040256 0.056724153
000190 ba 2a 8b bd ab 1a 4c 3d 6b de 94 3c b5 ec 95 3d
       -0.06795259 0.04983012 0.018172463 0.07320539
0001a0 97 24 97 3c a1 10 b6 3c 1f 34 05 b9 5d 51 d1 3c
       0.018450065 0.022224726 -0.00012703285 0.025551492
0001b0 87 e4 ac 3d 71 5e 90 bc cb cf 5a 3c 25 0a 85 bd
       0.08442026 -0.017623158 0.013355206 -0.064960755
0001c0 e2 16 ab 3d bf 52 87 3c 33 da 76 bd 1a 55 af 3c
       0.08353974 0.016518949 -0.060266685 0.021402884
0001d0 2b 0f 2e 3b 69 9a 8a 3d f6 8a 21 3d 57 0e 3a bd
       0.0026559334 0.06767733 0.039439164 -0.04542383
0001e0 8f f4 86 3c 4e 5d ae 3d 11 01 57 bd 0c 34 38 3c
       0.016474036 0.0851389 -0.05249125 0.011242878
0001f0 84 12 fe bb 1c 1d a4 bc 5f 66 c4 bc de 61 3c 3c
       -0.007753672 -0.020033412 -0.023974596 0.011497943
000200 56 13 44 bd 8c c6 87 bc f8 0d 40 bd 42 b0 fd bc
       -0.047870003 -0.016574167 -0.04688832 -0.030967835
000210 10 2b 9f bc e2 94 32 bd 4d 63 ec 3c d2 e0 62 3d
       -0.019429713 -0.043599017 0.028855944 0.055390187
000220 da 16 e8 3c 89 e3 88 bd 97 12 9c 3d eb 05 90 3c
       0.028331209 -0.06684024 0.07620733 0.017580947
000230 58 92 5f bd 66 b0 0a 3d 78 dc 6b 3d db 4b 63 bb
       -0.054582924 0.033859633 0.057583302 -0.0034682665
000240 23 23 89 bd 9f ad ae 3b da 2d ac 3b 6f 6e 02 3e
       -0.06696155 0.005330756 0.0052544894 0.1273744
000250 4d 01 0e bd c8 03 86 bd 17 fd b3 3c 0d 0b 13 bd
       -0.03466921 -0.0654369 0.021971269 -0.03589921
000260 9b 76 97 bc 13 45 bf 3d 9d 19 dc 3d 36 2d a2 bb
       -0.018489173 0.09339347 0.10747073 -0.004949237
000270 c3 3e 96 3d 94 e0 b4 3b c3 77 57 3d f2 04 12 3d
       0.073361896 0.005519936 0.052604448 0.035649247
000280 35 2e 66 3d d6 46 8d bd 4e 42 75 bb 33 3c 8a 3d
       0.05619641 -0.068982765 -0.0037423554 0.06749763
000290 d4 c7 f2 3b 20 3a 40 3d de 74 4f bb c5 0d 84 bd
       0.0074090753 0.046930432 -0.0031655352 -0.06447939
0002a0 2a b8 0c 3d f3 39 56 bc 91 a8 41 3d 41 72 2a bd
       0.03435532 -0.01307534 0.047279898 -0.041612867
0002b0 60 74 ca bc e0 05 ff 3c 07 2e 46 bd 8c 9e 9c bc
       -0.024713695 0.031130731 -0.04838374 -0.01911857
0002c0 da f2 13 3c cb 50 f8 3c 43 44 00 3d 2e d6 f5 3c
       0.009030068 0.030311963 0.0313151 0.030009355
0002d0 c5 13 4e 3c 48 fc 4e 3d f0 9a 8c 3d 91 8d e2 3a
       0.012577956 0.050533563 0.068654895 0.0017284622
0002e0 11 69 0a 3d 0a f3 c0 bc bc 00 3c 3b b6 6c 4e bc
       0.033791605 -0.02355339 0.002868696 -0.012599161
0002f0 b3 85 0a bd ce e0 e7 3d 26 61 ae 3c bb 49 b0 3d
       -0.03381891 0.11322175 0.021286558 0.08607813
000300 fe bd da bb 53 09 52 bc 70 6e 1a 3d bf 8f ba bc
       -0.006675481 -0.012819606 0.037702978 -0.022773622
000310 d7 28 9a bc c5 8c 5c 3c 47 81 ee bc 33 1d 19 3b
       -0.018818302 0.013461296 -0.029114379 0.0023363351
000320 98 b5 5b 3c 01 40 d5 bb 5c 9d 50 bc 0f 83 93 3c
       0.013409995 -0.006507874 -0.01273283 0.01800683
000330 2f ac a0 3d 39 36 75 b9 fe 1a 71 3d 2c e3 bb 3d
       0.078453414 -0.0002338522 0.058863632 0.09174189
000340 f3 e0 80 bd 79 b1 07 3c b3 68 9c 3d 4b 59 4a 3d
       -0.06292906 0.008282059 0.07637157 0.049401563
000350 79 dc e5 bc e2 2e 84 3b b0 6e 58 3d 99 2f 74 bc
       -0.028059231 0.004033909 0.052839935 -0.014903926
000360 25 16 dc bb 3f 15 dc 3c 63 4e 98 3c 71 4c 36 3d
       -0.006716507 0.0268656 0.018592065 0.044506494
000370 c1 7e a8 3d f4 cd 18 3d 1e 40 13 3c 44 7f 9a bd
       0.082273014 0.037305787 0.008987455 -0.07543805
000380 ef c9 81 3d 6f 33 2e bc e3 8d 21 bd 3f 6f 90 3d
       0.06337344 -0.01063238 -0.039441954 0.070524685
000390 fe ca 23 3c c8 b6 47 bd b9 70 03 bd 7d 4b 98 3d
       0.009997128 -0.0487583 -0.032089923 0.07436273
0003a0 3c 99 6e bd c9 be 9d bb d6 43 b7 3b 6f a5 55 bc
       -0.058251604 -0.004814003 0.0055928035 -0.013039931
0003b0 42 4f a0 bc 79 b7 83 3c 99 72 66 3c 11 23 8d 3d
       -0.019569043 0.016078698 0.014065408 0.06891454
0003c0 39 42 81 bc 66 71 1f bd 34 be ae 3d c2 9f 95 3d
       -0.015778648 -0.038926505 0.08532372 0.07305862
0003d0 4e 96 b5 bc f6 b2 eb ba 6b 55 05 3d 9c c8 98 3d
       -0.022166397 -0.0017982412 0.032552164 0.07460138
0003e0 1d 91 05 3c f2 1a 5e bb 95 ae 06 bd 9f a0 bb bc
       0.0081522735 -0.0033890572 -0.03288134 -0.022903739
0003f0 ce 0a 50 3d d0 97 b7 3d 21 47 80 3d 29 6d 28 3d
       0.050791554 0.08964503 0.06263567 0.04111973
